LibraForWebRTC/rl_script/loki/models/gcc_module.pt (torch, 16775 bytes, 9 tensors)

weight f4 [32, 10]
0	0xbea3632d	-0.31911603
1	0xbcc7189f	-0.024303732
2	0x3e7c5242	0.24640754
3	0x3de9dd4c	0.11419162
4	0xbebf7502	-0.37393957
5	0xbe0741ec	-0.13208741
6	0xbe510f08	-0.2041589
7	0x3cc5ea62	0.024159614
8	0xbcf53293	-0.029931342
9	0xbe15b6b1	-0.14620472
10	0x3df5e70b	0.120069586
11	0x3e72f57b	0.23726456
12	0xbe9e661a	-0.30937272
13	0x3ced95bf	0.029002069
14	0x3e03d24f	0.12873195
15	0x3bf08831	0.007340454
16	0x3e323f66	0.17406997
17	0xbeb3a929	-0.35089996
18	0x3e521da7	0.20519124
19	0xbecd6a26	-0.40120047
20	0xbef9ece7	-0.48813555
21	0xbd6ac906	-0.057320617
22	0xbd24977d	-0.040183533
23	0xbd9ded33	-0.07711258
24	0x3ea5db79	0.32394007
25	0x3dad0425	0.08448056
26	0x3d7baaad	0.061442066
27	0xbbc854f0	-0.006113641
28	0xbd85551c	-0.06510374
29	0x3e25a6f0	0.16176963
30	0x3e939106	0.28821582
31	0xbdb3e7c6	-0.08784442
32	0x3ea8b662	0.32951647
33	0xbe8eb61a	-0.27873307
34	0x3d7f68c1	0.06235576
35	0x3e3b6616	0.18300661
36	0x3cd0d6d0	0.025493056
37	0xbe7951d3	-0.2434762
38	0x3d8bc87b	0.06825348
39	0x3d72d9cf	0.05928975
40	0x3d382c55	0.044964153
41	0x3e0ad7b7	0.13558851
42	0xbe0c6bf7	-0.1371306
43	0x3df0b712	0.11753668
44	0xbea6f96e	-0.32612175
45	0x3e00eb38	0.12589729
46	0x3e985696	0.2975356
47	0x3d9a9b8f	0.07549202
48	0xbe8c20fc	-0.27368915
49	0x3f20a6e6	0.62754667
50	0xbdcd5c58	-0.10027379
51	0x3ddea936	0.10872118
52	0xbe9dfddc	-0.30857742
53	0xbe7b2e44	-0.24529368
54	0xbdbaf1cc	-0.0912815
55	0x3db424bf	0.08796071
56	0xbdb23ec7	-0.0870338
57	0x3d312ee6	0.043257616
58	0x3e5ae352	0.21375778
59	0xbe2853b2	-0.16438177
60	0xbe2479cd	-0.16062088
61	0xbddea2d9	-0.108709045
62	0xbd69f9f4	-0.05712314
63	0x3e08d67e	0.13363072
64	0x3e271833	0.16317825
65	0x3eb7a546	0.3586828
66	0xbe99de71	-0.30052522
67	0x3ea2a2df	0.31764886
68	0xbec4bcdd	-0.3842534
69	0x3eca2b09	0.39485958
70	0xbd1d932b	-0.03847043
71	0xbe3fea67	-0.18741761
72	0x3e7c9f6f	0.24670194
73	0x3d0df5cb	0.034658235
74	0xbdfc632e	-0.123236045
75	0xbe967f84	-0.29394162
76	0x3ebedc4f	0.37277457
77	0x3cb3d71b	0.021953156
78	0x3e333496	0.17500529
79	0x3e209c15	0.1568454
80	0xbe0ab4dd	-0.13545556
81	0x3e631979	0.22177686
82	0xbdc64fd4	-0.09683195
83	0xbec165fa	-0.37773114
84	0xbe37664f	-0.17910121
85	0x3e1fa761	0.15591194
86	0x3d924c9f	0.071435206
87	0x3bad5838	0.0052900575
88	0xbef836eb	-0.484794
89	0x3e46c58a	0.19411293
90	0xbeb0cf32	-0.34533077
91	0xbf0fd280	-0.5618057
92	0xbeca3f76	-0.39501542
93	0xbe8bb86e	-0.27289146
94	0xbe42d00b	-0.19024675
95	0x3ebb6ea6	0.36607856
96	0x3e3bfb46	0.18357572
97	0xbe57d0fc	-0.21075815
98	0xbcca0ade	-0.024663385
99	0x3e378c47	0.17924605
100	0x3ea69a69	0.3253968
101	0xbcc9e9cf	-0.024647621
102	0xbe65fc51	-0.22459532
103	0x3d896934	0.06709519
104	0xbca0c952	-0.019627247
105	0xbcda0ca0	-0.026617348
106	0x3e8a7ed0	0.27049875
107	0xbd29e92c	-0.041482136
108	0xbd84c01e	-0.06481956
109	0x3e3be576	0.18349251
110	0x3e7b4ce4	0.2454105
111	0xbd1e5250	-0.038652718
112	0xbef883e3	-0.48538122
113	0xbe0ac7ce	-0.13552782
114	0xbedd5f82	-0.4323693
115	0xbe119a46	-0.14219007
116	0xbb0ca352	-0.0021459651
117	0x3e59df90	0.21276689
118	0x3e986335	0.2976319
119	0x3e5f20f3	0.21789913
120	0xbe646279	-0.2230319
121	0x3deff457	0.11716526
122	0x3ecd55af	0.40104434
123	0xbdd2d7bf	-0.102950566
124	0xbd4cb995	-0.049981672
125	0x3ea98e78	0.33116508
126	0xbe84178f	-0.25799224
127	0xbe49d60b	-0.19710557
128	0xbebb4a4b	-0.3658012
129	0xbe31a322	-0.17347386
130	0xbebccd5c	-0.36875427
131	0xbd3fae50	-0.046797097
132	0x3eab12ff	0.3341293
133	0x3e3bc410	0.1833651
134	0xbe9e92c9	-0.30971363
135	0xbd1628b7	-0.036659922
136	0xbe5e47ee	-0.21707126
137	0xbe2cc700	-0.16872787
138	0x3f3afca2	0.7304174
139	0xbd9a49ab	-0.07533582
140	0x3d1b61c3	0.03793503
141	0x3eb9e46c	0.36307085
142	0xbe5d5a52	-0.21616486
143	0x3cf4abb8	0.029867038
144	0x3eacc2c1	0.33742335
145	0x3db9e76c	0.09077343
146	0xbe8f52bb	-0.27992806
147	0xbdc27854	-0.09495607
148	0x3e563d63	0.20921855
149	0xbcdb86eb	-0.026797732
150	0xbca6bed1	-0.02035466
151	0xbd21bbe6	-0.039485835
152	0x3e7585fe	0.23976895
153	0xbd3bf1c9	-0.04588488
154	0xbd36c4c6	-0.04462125
155	0x3ee43324	0.44570267
156	0x3e04a834	0.1295479
157	0xbe086973	-0.13321476
158	0xb9c523ae	-0.00037601352
159	0x3ce30d3a	0.027716268
160	0x3e188f22	0.14898351
161	0x3e39ef9a	0.18157807
162	0x3c045af5	0.0080783265
163	0xbe677286	-0.22602281
164	0xbeba0b00	-0.36336517
165	0xbd8c0e85	-0.06838707
166	0x3e28f271	0.16498734
167	0x3e01a1de	0.12659404
168	0xbbb46aed	-0.0055059106
169	0xbbd827ea	-0.006596555
170	0xbf153095	-0.58277255
171	0x3e207622	0.15670064
172	0x3d3c394e	0.045953088
173	0xbe953127	-0.29139063
174	0x3f01aa2b	0.5065028
175	0xbee10046	-0.4394552
176	0x3ec61c3f	0.38693425
177	0xbd339f7b	-0.043853264
178	0x3e2abd98	0.16673887
179	0x3ea1aff3	0.3157955
180	0x3eabfe77	0.3359258
181	0xbee00b47	-0.43758604
182	0x3d9dd74a	0.07707079
183	0xbf212756	-0.62950647
184	0x3dee2a1f	0.11629128
185	0xbe7fea46	-0.24991712
186	0xbeccc8d9	-0.39996985
187	0xbcef84a7	-0.029238058
188	0xbd42cc04	-0.047557846
189	0x3eedf951	0.46479276
190	0xbcd0c70c	-0.025485538
191	0xbd701867	-0.058617022
192	0xbe24f483	-0.16108899
193	0x3d456e1f	0.048200723
194	0x3dad4d22	0.084619775
195	0xbe8363a6	-0.25661963
196	0x3e38489b	0.17996447
197	0x3ec06759	0.37578848
198	0xbddd79d1	-0.1081425
199	0xbe9f1a02	-0.3107453
200	0x3d666d6f	0.056256708
201	0xbdc326b1	-0.09528864
202	0x3d62c657	0.055364933
203	0xbed20984	-0.41022885
204	0x3b5b74c8	0.0033486355
205	0x3f20e2e5	0.62846214
206	0x3ea065f9	0.313278
207	0xbddd95bc	-0.10819575
208	0x3ed9affe	0.42517084
209	0xbe970744	-0.2949773
210	0xbe852df2	-0.26011616
211	0xbf44bc13	-0.7684948
212	0xbe00d8e0	-0.12582731
213	0x3d0f3d44	0.034970537
214	0x3daa9984	0.08330062
215	0xbe1786a7	-0.1479746
216	0x3bb0ebd0	0.005399205
217	0x3eeba7da	0.46026498
218	0xbe4ae3e4	-0.19813496
219	0xbeb5f6d0	-0.35539865
220	0xbdc67b6d	-0.0969151
221	0xbe86e972	-0.2634998
222	0xbe9fa49b	-0.31180272
223	0x3dafa54b	0.08576449
224	0x3cde606d	0.027145589
225	0x3e21c9e4	0.15799671
226	0xbf33354e	-0.7000321
227	0x3dc8611f	0.097841494
228	0x3de207aa	0.11036618
229	0x3e777a36	0.24167714
230	0x3e466471	0.19374253
231	0xbd4f91c7	-0.050676133
232	0xbecb3b27	-0.39693567
233	0x3eb9635e	0.36208624
234	0x3df71455	0.12064425
235	0x3d86cd5a	0.065821365
236	0x3dc7aa09	0.097492285
237	0x3ba66245	0.0050776326
238	0x3dbb6e7a	0.09151931
239	0xbd17a6d6	-0.03702434
240	0xbdb0acdc	-0.0862672
241	0xbe9805bd	-0.29691878
242	0xbeabe601	-0.33573917
243	0xbb97fe3f	-0.004638463
244	0x3ebf3420	0.37344456
245	0xbe7e189e	-0.24814078
246	0x3d378bc2	0.044811018
247	0xbef500c6	-0.47852153
248	0xbe58768b	-0.2113897
249	0xbef2308f	-0.47302672
250	0x3e480561	0.19533302
251	0xbdd59914	-0.10429588
252	0xbe83e3c6	-0.25759715
253	0xbcbe651d	-0.023241574
254	0xbda0b0a8	-0.078461945
255	0x3dd13699	0.10215492

bias f4 [32]
0	0x3f0e2945	0.5553172
1	0xbe5f311d	-0.21796079
2	0xbed93df6	-0.42430085
3	0x3e965c33	0.29367217
4	0x3e36ff90	0.17870927
5	0x3ebb59d9	0.36591986
6	0x3e329763	0.17440562
7	0x3e8aa0ed	0.27075902
8	0xbee7348e	-0.45157284
9	0xbea71dc6	-0.32639903
10	0xbee109b6	-0.4395272
11	0x3e8fa023	0.28051862
12	0xbe95d792	-0.2926603
13	0x3ee6bac0	0.45064354
14	0xbe937862	-0.28802782
15	0xbea6ee63	-0.3260375
16	0xbed5d496	-0.41763753
17	0x3e8f7967	0.2802231
18	0xbe2e0793	-0.16995077
19	0x3ec35fd9	0.38159063
20	0x3eaa3a7f	0.33247754
21	0xbee79a66	-0.45234984
22	0x3e8da6ab	0.2766622
23	0x3e9f306c	0.3109163
24	0xbe2fbc89	-0.17161764
25	0xbeda3420	-0.42617893
26	0x3e8aa07d	0.27075568
27	0x3ebccdea	0.3687585
28	0x3e5744b5	0.21022303
29	0xbea206a5	-0.31645694
30	0xbe82644c	-0.25467145
31	0xbe3d7186	-0.18500337

weight f4 [32, 32]
0	0xbe5695c0	-0.20955563
1	0x3d0f66a5	0.03501
2	0xbd56a2d9	-0.052401397
3	0xbdeac765	-0.11463813
4	0x3e5aef35	0.21380313
5	0x3ddab4cb	0.10679015
6	0xbeae19cc	-0.34004056
7	0xbe874482	-0.26419455
8	0x3ecdf655	0.40227
9	0x3ef6a66c	0.48173845
10	0x3eb701b3	0.35743484
11	0x3eaae29c	0.33376014
12	0x3ec22a0e	0.3792271
13	0xbf0777d7	-0.52917236
14	0x3e3664c7	0.17811881
15	0x3ed75c99	0.42062834
16	0xbee5a9a8	-0.44856
17	0x3e95390a	0.2914508
18	0xbcc5b651	-0.024134787
19	0xbea1e85e	-0.31622595
20	0xbeea734c	-0.4579109
21	0x3eaaddb2	0.33372265
22	0xbe6e1b78	-0.23252666
23	0xbdb40218	-0.08789462
24	0x3e96c18e	0.29444546
25	0x3ef221e1	0.47291473
26	0xbe1efd98	-0.15526426
27	0xbec13614	-0.3773657
28	0x3e60a822	0.21939138
29	0x3e05a837	0.1305245
30	0xbd317bcb	-0.04333095
31	0x3ece28c7	0.40265486
32	0xbe8851bc	-0.26624858
33	0xbe908743	-0.28228197
34	0x3e852434	0.26004183
35	0xbd878352	-0.06616844
36	0xbf15c56f	-0.58504385
37	0xbf25bba5	-0.6473945
38	0xbe0d7053	-0.1381238
39	0x3e8a56cc	0.27019346
40	0x3e6b6b10	0.2299006
41	0x3eee2715	0.46514192
42	0x3e609c22	0.2193456
43	0x3d9abc93	0.07555499
44	0x3e75e645	0.24013622
45	0xbefe6552	-0.49686676
46	0x3ec06cc3	0.3758298
47	0x3ec4219c	0.38306892
48	0xbd9b2862	-0.07576062
49	0xbec30f40	-0.38097572
50	0x3e4bbccd	0.1989624
51	0xbe4d1b5d	-0.2002997
52	0xbf04e947	-0.5191845
53	0x3f0e37bd	0.555538
54	0x3d33edda	0.043928005
55	0xbe52981b	-0.20565836
56	0x3def1b2b	0.11675104
57	0xbe5f3625	-0.21797998
58	0x3e59ff80	0.21288872
59	0xbea10ca4	-0.31454957
60	0x3c862d56	0.01637904
61	0x3c64ba28	0.013960399
62	0xbe560b48	-0.20902741
63	0x3e1eb08d	0.15497036
64	0x3f0d8b45	0.55290633
65	0xbe6b32b3	-0.22968559
66	0xbf12dbd7	-0.573667
67	0xbe6ecddf	-0.23320721
68	0x3eb11065	0.3458282
69	0x3f0c4768	0.5479646
70	0x3e7e9b4f	0.24863933
71	0x3e7f5068	0.24933016
72	0xbe7c681b	-0.24649088
73	0xbe3024fc	-0.17201608
74	0xbe38bb6e	-0.18040249
75	0xbf0c722f	-0.5486173
76	0xbefa15c1	-0.48844722
77	0x3ce97430	0.028497785
78	0x3e42d246	0.19025525
79	0xbbd85513	-0.0066019385
80	0xbcce6695	-0.0251954
81	0x3e9c7ad8	0.30562472
82	0x3e0e5d40	0.1390276
83	0x3f04fa47	0.5194439
84	0xbe1c6bfe	-0.15275571
85	0xbcb90cc6	-0.022589099
86	0x3ddb16e0	0.106977224
87	0x3e004ca9	0.12529244
88	0xbe856dcc	-0.2606033
89	0xbf1bebc5	-0.6090663
90	0xbd15d785	-0.03658249
91	0x3e8eee9f	0.27916428
92	0x3dd6a04b	0.10479792
93	0xbe08feae	-0.13378403
94	0xbe4809cd	-0.19534989
95	0xbccf5195	-0.025307456
96	0x3f163fdf	0.5869121
97	0xbe70694c	-0.23477668
98	0xbe91caf7	-0.28475162
99	0x3f1cac54	0.6120045
100	0x3ea61f19	0.324456
101	0x3d2d8d94	0.042371348
102	0xbe054488	-0.13014424
103	0x3e2bdea6	0.16784152
104	0xbe597d3b	-0.21239178
105	0xbec6f62b	-0.38859686
106	0xbe96a9c5	-0.294264
107	0x3dfb0355	0.12256495
108	0xbe566ebb	-0.20940678
109	0x3e96204d	0.2932152
110	0x3e88db65	0.26729885
111	0xbeef568f	-0.46745726
112	0x3d5423c1	0.05179191
113	0x3e6a8ecf	0.2290604
114	0xbeb53a02	-0.3539582
115	0x3f56103a	0.8361851
116	0xbe4f9f0a	-0.20275512
117	0xbe5fd003	-0.21856694
118	0x3e7b89cf	0.24564289
119	0x3e67add3	0.22624902
120	0x3e9290ce	0.28626102
121	0xbe21a61b	-0.1578602
122	0xbd7195bb	-0.058980685
123	0x3c180f55	0.009280999
124	0xbede2779	-0.4338949
125	0xbeaa4675	-0.3325688
126	0x3e229b4b	0.15879552
127	0xbeb12a3c	-0.34602535
128	0x3e9199d2	0.28437668
129	0xbe726a17	-0.23673283
130	0xbdcead55	-0.10091654
131	0x3ef2ca92	0.47420174
132	0xbe63a227	-0.22229825
133	0x3f357873	0.70886916
134	0x3dc4d0dd	0.0961015
135	0x3e03e147	0.12878905
136	0xbec40393	-0.38283977
137	0xbe708e41	-0.23491766
138	0xbf147def	-0.5800466
139	0xbe75ed61	-0.24016334
140	0x3dc24b4d	0.09487019
141	0x3e904b78	0.28182578
142	0x3cd9333e	0.026513692
143	0x3eb9a979	0.3626211
144	0x3ec2ba66	0.38032836
145	0x3e3dabda	0.18522587
146	0xbebda3a5	-0.37038913
147	0x3e0b08d1	0.13577582
148	0xbdd56ce2	-0.104211584
149	0xbe0d2575	-0.1378382
150	0xbdce9c87	-0.10088449
151	0xbd74954b	-0.05971269
152	0xbc860388	-0.016359106
153	0xbe5202cb	-0.20508878
154	0x3e3d90b0	0.18512225
155	0x3dd0b4e3	0.101907514
156	0x3e55b930	0.20871425
157	0xbe35c43a	-0.17750636
158	0x3d8405a8	0.06446391
159	0xbf226c13	-0.6344616
160	0xbd51d3d5	-0.05122741
161	0xbdff247d	-0.124581315
162	0x3e82a7de	0.25518698
163	0xbee7d1e7	-0.4527733
164	0xbed2f005	-0.41198745
165	0xbec3aa61	-0.38215926
166	0xbde1b66c	-0.11021122
167	0xbded9b94	-0.1160194
168	0x3f355dda	0.7084633
169	0xbe26aca5	-0.16276796
170	0x3f276c37	0.653995
171	0xbdac0005	-0.08398441
172	0x3ec3f285	0.38270965
173	0xbeccdce5	-0.4001228
174	0xbed5cff6	-0.41760224
175	0x3edd18fb	0.4318312
176	0x3e4a30aa	0.19745126
177	0x3cf0c050	0.029388577
178	0x3eb23c0c	0.34811437
179	0x3e18727a	0.1488742
180	0xbd9e6ee9	-0.07735998
181	0x3dec7513	0.11545768
182	0xbe92a03b	-0.2863787
183	0x3e602daf	0.21892427
184	0x3e8948ea	0.26813442
185	0x3ee4e11c	0.44702995
186	0x3e13bf3f	0.14428423
187	0xbe8fb699	-0.28068998
188	0x3d4847bd	0.04889654
189	0x3e7c8fae	0.24664184
190	0xbd038b7e	-0.032115452
191	0xbe037987	-0.12839328
192	0x3e2599f5	0.16172011
193	0xbe42f2ac	-0.19037884
194	0xbee7a3d6	-0.45242184
195	0x3e942ce9	0.28940514
196	0x3d8ecc09	0.0697251
197	0x3ef64762	0.48101336
198	0xbd624ecf	-0.05525094
199	0x3f1ad593	0.6048214
200	0x3e696c17	0.22795139
201	0xbeeaf2d2	-0.45888382
202	0xbf029583	-0.51009387
203	0x3ed398da	0.41327554
204	0xbeecc41b	-0.46243367
205	0x3da9400e	0.082641706
206	0x3db64547	0.08899932
207	0xbd3458b2	-0.0440299
208	0xbdb05527	-0.086099915
209	0x3d8f343d	0.069923855
210	0xbecd858d	-0.40140954
211	0x3ef3984f	0.4757714
212	0x3eeb99c9	0.46015766
213	0xbe180c90	-0.14848542
214	0x3eb2ed76	0.34946793
215	0xbe174a9c	-0.14774555
216	0xbf140490	-0.5781946
217	0x3e84d7d0	0.25945902
218	0x3e8c1933	0.27362975
219	0x3dba96b3	0.09110775
220	0x3d1c5645	0.03816821
221	0xbdb0d400	-0.08634186
222	0xbeb11a17	-0.34590217
223	0xbdb2cf47	-0.08730941
224	0xbeef7a49	-0.46772984
225	0x3e612a13	0.21988706
226	0x3ea32824	0.31866562
227	0x3b8fa254	0.0043833647
228	0x3e43926a	0.19098821
229	0xbd894b90	-0.067038655
230	0xbdb430af	-0.08798348
231	0xbe85e1c0	-0.26148796
232	0x3eb3687e	0.3504066
233	0x3e09d4af	0.13460039
234	0x3f040a58	0.51578283
235	0xbea934f6	-0.33048218
236	0x3ee95790	0.45574617
237	0x3dd75d67	0.10515862
238	0x3e983b13	0.2973257
239	0x3ecb2630	0.39677572
240	0x3e7e2df3	0.24822216
241	0x3d52cd11	0.051465098
242	0x3e55bf94	0.20873863
243	0xbd94989a	-0.07255669
244	0xbdb7de35	-0.089779295
245	0x3f147635	0.5799287
246	0xbe555068	-0.20831454
247	0xbce2a198	-0.027664945
248	0xbdeee0e7	-0.116639905
249	0xbccb979f	-0.024852572
250	0xbe1cd96e	-0.15317318
251	0x3ef06db2	0.4695869
252	0xbef689ff	-0.48152158
253	0x3f237b31	0.6385985
254	0x3e474e0a	0.19463363
255	0x3d71b275	0.05900808

bias f4 [32]
0	0xbe8c057e	-0.2734794
1	0xbe8ec022	-0.2788096
2	0x3e958a47	0.2920706
3	0x3e929c2d	0.28634778
4	0x3eaca744	0.33721364
5	0xbea6bbee	-0.32565254
6	0x3e8d3b38	0.27584243
7	0xbedfe29d	-0.4372758
8	0x3e8e2ad1	0.2776704
9	0x3e955c30	0.29171896
10	0x3ec20dd9	0.3790119
11	0xbebf0343	-0.37307176
12	0xbe8ca750	-0.274714
13	0x3e835b33	0.25655517
14	0xbe839e3b	-0.25706658
15	0x3e86fe5d	0.2636594
16	0xbe839413	-0.2569891
17	0x3e8992b4	0.26869738
18	0x3ec2b3d4	0.38027823
19	0xbf0e0aa6	-0.55485
20	0xbea0f47e	-0.31436533
21	0xbeada3af	-0.33913943
22	0x3e91bd61	0.28464797
23	0x3e891dda	0.26780587
24	0x3e944fa8	0.28967023
25	0x3e97140f	0.2950749
26	0x3e86e5d6	0.26347226
27	0xbe82ecfa	-0.25571424
28	0x3ea214a3	0.3165637
29	0x3e94c690	0.2905774
30	0xbe8694f0	-0.26285505
31	0x3f336d85	0.7008899

weight f4 [10, 32]
0	0x3f16371d	0.58677846
1	0x3f08863c	0.53329825
2	0xbea9f9b9	-0.33198336
3	0xbf045b48	-0.51701784
4	0xbf16ef82	-0.5895921
5	0x3f14d2dd	0.5813425
6	0x3e13c2c2	0.14429763
7	0xbe8ac43d	-0.27102843
8	0xbee4af9d	-0.44665232
9	0x3e86b566	0.2631027
10	0x3e540289	0.20704092
11	0xbe2a9d8d	-0.16661663
12	0x3ef237ae	0.47308105
13	0xbf001f17	-0.5004744
14	0x3eeb5316	0.45961827
15	0xbefc3c3e	-0.4926471
16	0x3f1b4fd8	0.60668707
17	0xbf1a927f	-0.60379785
18	0x3ea20e54	0.31651556
19	0xbd2be4b2	-0.041966148
20	0xbe43c34e	-0.19117472
21	0x3ea876f7	0.32903263
22	0xbecbd9f3	-0.3981472
23	0xbf083052	-0.5319873
24	0xbefaf376	-0.4901387
25	0xbebee0c6	-0.37280864
26	0xbf0edfbd	-0.5581015
27	0x3efe531c	0.49672782
28	0x3e39ef5a	0.18157712
29	0xbf0f95fe	-0.56088245
30	0x3ee7373c	0.45159328
31	0x3ea115f8	0.31462073
32	0x3e20a953	0.15689592
33	0x3dc21f33	0.09478607
34	0xbe547225	-0.20746668
35	0xbe718f00	-0.23589706
36	0xbdc6d6c2	-0.097089306
37	0x3dd4b2b4	0.103856474
38	0xbe900a24	-0.28132737
39	0x3ec9bcce	0.3940186
40	0xbe3fe772	-0.18740633
41	0xbeacbefb	-0.33739457
42	0xbeb5e3b1	-0.35525277
43	0x3e9fd0bc	0.3121394
44	0x3e0ec12c	0.13940877
45	0xbe5ce2d1	-0.21570899
46	0x3e6a03fa	0.2285308
47	0xbe0d2cea	-0.13786665
48	0x3e38e587	0.18056308
49	0xbe3dd718	-0.18539083
50	0xbec84f3c	-0.3912295
51	0x3ef78e90	0.48350954
52	0x3ea35094	0.31897414
53	0x3eaa2a8a	0.3323558
54	0xbe3ac074	-0.18237478
55	0xbe3cedd0	-0.18450093
56	0xbe386760	-0.18008184
57	0xbe7e7603	-0.24849705
58	0xbe420c98	-0.18950117
59	0x3defeae7	0.11714726
60	0xbea50781	-0.32232288
61	0xbe3ef713	-0.18648939
62	0x3e2a5607	0.1663438
63	0xbf079a94	-0.5297024
64	0x3e22d673	0.15902118
65	0x3dbdfa2f	0.09276234
66	0xbe5232d1	-0.20527197
67	0xbe700807	-0.23440562
68	0xbdc1c38b	-0.09461125
69	0x3dd36294	0.10321537
70	0xbe9087fe	-0.28228754
71	0x3ec9aa5d	0.3938779
72	0xbe3df850	-0.18551755
73	0xbead6b37	-0.3387086
74	0xbeb58613	-0.35453853
75	0x3ea1c592	0.31596047
76	0x3e0e59e1	0.13901474
77	0xbe5f1636	-0.21785817
78	0x3e67a8bc	0.22622961
79	0xbe108244	-0.14112192
80	0x3e36ba24	0.17844445
81	0xbe40e913	-0.18838911
82	0xbec84641	-0.391161
83	0x3ef54c0b	0.4790958
84	0x3ea370bf	0.31921956
85	0x3eaade1f	0.3337259
86	0xbe429f50	-0.19006085
87	0xbe3be16b	-0.18347709
88	0xbe3835e0	-0.17989302
89	0xbe7e2da8	-0.24822104
90	0xbe40a851	-0.18814208
91	0x3dec6170	0.11542022
92	0xbea37a70	-0.3192935
93	0xbe42f3c1	-0.19038297
94	0x3e289cf9	0.1646613
95	0xbf07aaef	-0.529952
96	0x3e1fcee6	0.15606269
97	0x3dbfb847	0.0936132
98	0xbe517fa4	-0.20458847
99	0xbe6fd475	-0.2342089
100	0xbdc7b907	-0.09752088
101	0x3dd4fb13	0.10399451
102	0xbe902bdf	-0.2815847
103	0x3ec9e634	0.39433444
104	0xbe40dda7	-0.18834554
105	0xbeae22a9	-0.3401082
106	0xbeb559e9	-0.35420159
107	0x3e9fb71b	0.31194386
108	0x3e0dfbee	0.13865635
109	0xbe614a6c	-0.22001046
110	0x3e690f83	0.22759824
111	0xbe0ce54c	-0.13759345
112	0x3e3773e9	0.1791531
113	0xbe414bd5	-0.18876584
114	0xbec94231	-0.39308313
115	0x3ef582c3	0.47951326
116	0x3ea48c60	0.32138348
117	0x3eaa79a7	0.33295938
118	0xbe3e78d7	-0.18600784
119	0xbe37d89e	-0.17953727
120	0xbe3c00ed	-0.18359728
121	0xbe7eb030	-0.24871898
122	0xbe445f6e	-0.19177029
123	0x3df030ee	0.117280826
124	0xbea5177a	-0.32244474
125	0xbe41921c	-0.18903393
126	0x3e278650	0.1635983
127	0xbf06b805	-0.5262454
128	0x3e213ee4	0.15746647
129	0x3dc5192b	0.09623941
130	0xbe53a197	-0.2066711
131	0xbe705cc1	-0.23472883
132	0xbdc79125	-0.09744481
133	0x3dd56856	0.10420291
134	0xbe8e7d5a	-0.2783001
135	0x3eca072a	0.3945859
136	0xbe3dee80	-0.18548012
137	0xbeac630c	-0.33669317
138	0xbeb55b60	-0.35421276
139	0x3ea1856c	0.31547105
140	0x3e0bebed	0.13664217
141	0xbe5b9333	-0.21442871
142	0x3e66359b	0.22481386
143	0xbe0b29e2	-0.13590196
144	0x3e37b8c0	0.1794157
145	0xbe40b591	-0.18819262
146	0xbec8ca82	-0.39217
147	0x3ef66af3	0.4812847
148	0x3ea3ce1f	0.31993195
149	0x3eaa7d1a	0.3329857
150	0xbe3e25d6	-0.18569121
151	0xbe37c0f4	-0.179447
152	0xbe37683b	-0.17910855
153	0xbe81052c	-0.25199258
154	0xbe457b70	-0.19285369
155	0x3df089a6	0.11745004
156	0xbea33872	-0.31879002
157	0xbe445dd7	-0.19176422
158	0x3e288f45	0.16460903
159	0xbf07bd75	-0.53023463
160	0x3e1f643d	0.15565582
161	0x3dbde2f2	0.09271802
162	0xbe51715b	-0.20453398
163	0xbe74f3ee	-0.23921177
164	0xbdc5cb64	-0.09657934
165	0x3dd19b44	0.10234693
166	0xbe8eec14	-0.27914488
167	0x3ec8d3c2	0.39224058
168	0xbe40ab80	-0.18815422
169	0xbeac39be	-0.33637804
170	0xbeb3db45	-0.35128227
171	0x3ea01b67	0.31270906
172	0x3e0dfbb9	0.13865556
173	0xbe602271	-0.21888138
174	0x3e67bb2c	0.22629994
175	0xbe0accec	-0.13554734
176	0x3e385eb5	0.18004878
177	0xbe3da34f	-0.18519329
178	0xbec7250a	-0.38895446
179	0x3ef633d3	0.48086414
180	0x3ea41c3a	0.32052785
181	0x3eaa2052	0.33227783
182	0xbe409d59	-0.18810023
183	0xbe37cbed	-0.17948885
184	0xbe3739eb	-0.17893188
185	0xbe7ea501	-0.24867631
186	0xbe42b79f	-0.19015358
187	0x3df2843e	0.118416294
188	0xbea516a3	-0.32243833
189	0xbe437eb0	-0.19091296
190	0x3e28a48d	0.16469021
191	0xbf083207	-0.53201336
192	0x3e202e07	0.15642558
193	0x3dc66334	0.0968689
194	0xbe52cfbd	-0.20587058
195	0xbe732cde	-0.23747584
196	0xbdc09085	-0.09402565
197	0x3dd08a51	0.10182632
198	0xbe8dc57c	-0.2768973
199	0x3eca18f0	0.3947215
200	0xbe3f07f0	-0.18655372
201	0xbead3b26	-0.3383419
202	0xbeb44ce9	-0.35214928
203	0x3e9f477b	0.31109223
204	0x3e0f2394	0.13978416
205	0xbe608376	-0.21925148
206	0x3e69cd52	0.2283223
207	0xbe0c3429	-0.13691773
208	0x3e38b546	0.180379
209	0xbe421cbd	-0.18956275
210	0xbec91d6c	-0.3928026
211	0x3ef5ef01	0.48033908
212	0x3ea3be7e	0.31981272
213	0x3ea97f61	0.33104995
214	0xbe3d4b8b	-0.18485849
215	0xbe3abb86	-0.18235597
216	0xbe3a1e53	-0.1817563
217	0xbe7fd064	-0.24981838
218	0xbe40f9de	-0.18845317
219	0x3dee353d	0.11631248
220	0xbea3de10	-0.32005358
221	0xbe42d3af	-0.19026063
222	0x3e24c2ed	0.16089983
223	0xbf0832d3	-0.5320255
224	0x3e1e1e20	0.1544118
225	0x3dbef16c	0.09323391
226	0xbe52a69f	-0.20571373
227	0xbe7031db	-0.23456518
228	0xbdc8f752	-0.098127976
229	0x3dd4662f	0.103710525
230	0xbe8cd5ca	-0.27506858
231	0x3eca49b5	0.3950936
232	0xbe3f0d0c	-0.1865732
233	0xbeae1049	-0.339968
234	0xbeb5ce70	-0.35509062
235	0x3e9f003c	0.31054866
236	0x3e0c4529	0.13698258
237	0xbe5fbaed	-0.2184865
238	0x3e67d363	0.22639231
239	0xbe0e75f9	-0.1391219
240	0x3e353a70	0.17698073
241	0xbe3e7d07	-0.18602382
242	0xbec6e6cd	-0.38847962
243	0x3ef5729c	0.47939003
244	0x3ea50b7b	0.3223532
245	0x3eab6636	0.33476418
246	0xbe3e740c	-0.18598956
247	0xbe3bc4a0	-0.18336725
248	0xbe3906b8	-0.18068969
249	0xbe8014ea	-0.25015956
250	0xbe419265	-0.18903501
251	0x3ded8abb	0.11598726
252	0xbea3ee96	-0.32017964
253	0xbe43ac58	-0.19108713
254	0x3e2a8d4e	0.16655466
255	0xbf07b005	-0.5300296

bias f4 [10]
0	0x3d0e8542	0.034795053
1	0xbe42bb0f	-0.1901667
2	0xbe42cc86	-0.19023332
3	0xbe42d10e	-0.1902506
4	0xbe42ce87	-0.19024096
5	0xbe42e291	-0.1903174
6	0xbe42db9a	-0.19029084
7	0xbe42e2fb	-0.19031899
8	0xbe42dff1	-0.1903074
9	0x3e255548	0.16145813

weight f4 [1, 32]
0	0xbd89edd0	-0.06734812
1	0x3e829916	0.2550742
2	0x3d8cc551	0.068735726
3	0x3e81fe23	0.25389203
4	0x3d9f44cb	0.07776793
5	0xbe0beb9c	-0.13664097
6	0xbd968894	-0.07350269
7	0x3e37de46	0.17955884
8	0x3ed6469a	0.4185074
9	0xbd5786e0	-0.05261886
10	0xbe0bf675	-0.13668235
11	0x3db3673c	0.08759925
12	0x3dfb8d97	0.122828655
13	0x3cc95011	0.024574311
14	0xbdcb7cc9	-0.0993591
15	0xbea5f6ca	-0.32414848
16	0xbdf8abfc	-0.121421784
17	0x3e4ab58a	0.19795814
18	0xbe35716b	-0.17719047
19	0xbec95822	-0.39325052
20	0xbe0e3b74	-0.13889867
21	0xbe2f0048	-0.17089951
22	0xbcb78a06	-0.022404682
23	0x3df6ee84	0.12057212
24	0x3dc5450f	0.096323125
25	0x3dd11043	0.1020818
26	0x3d249617	0.0401822
27	0x3e25d217	0.16193424
28	0xbb1c6cbe	-0.0023868526
29	0xbe3acf6a	-0.18243185
30	0xbe06f53a	-0.13179484
31	0xbe7f7761	-0.24947883

logits f4 [32, 10]
0	0xc1898c3c	-17.193474
1	0xc18312b0	-16.384125
2	0xc183131e	-16.384335
3	0xc18319bc	-16.387566
4	0xc1830920	-16.379456
5	0xc182facc	-16.37246
6	0xc183056c	-16.377647
7	0xc182ff0a	-16.37453
8	0xc1831576	-16.385479
9	0xb5800000	-9.536743e-07
10	0xc189249a	-17.142872
11	0xc182c204	-16.344734
12	0xc182c26f	-16.344938
13	0xc182c909	-16.348162
14	0xc182b882	-16.340092
15	0xc182aa3b	-16.33312
16	0xc182b4d2	-16.338291
17	0xc182ae68	-16.33516
18	0xc182c4ce	-16.346096
19	0xb5800000	-9.536743e-07
20	0xc188abd8	-17.083908
21	0xc1828f76	-16.32005
22	0xc1828ff8	-16.320297
23	0xc1829669	-16.323442
24	0xc18285f7	-16.315413
25	0xc182779f	-16.308409
26	0xc1828238	-16.313583
27	0xc1827bd6	-16.310467
28	0xc1829235	-16.32139
29	0xb5800000	-9.536743e-07
30	0xc1893258	-17.149582
31	0xc18259b3	-16.293798
32	0xc1825a15	-16.293985
33	0xc18260a2	-16.297184
34	0xc1825042	-16.289188
35	0xc1824238	-16.282333
36	0xc1824cad	-16.28744
37	0xc1824647	-16.284315
38	0xc1825cbf	-16.295286
39	0xb5800000	-9.536743e-07
40	0xc189dbe2	-17.232365
41	0xc1828193	-16.313269
42	0xc18281e3	-16.313421
43	0xc1828862	-16.316593
44	0xc1827821	-16.308657
45	0xc1826a2c	-16.301842
46	0xc1827469	-16.30684
47	0xc1826e16	-16.303753
48	0xc18284ad	-16.314783
49	0xb5800000	-9.536743e-07
50	0xc189a3f7	-17.205061
51	0xc182aed7	-16.335371
52	0xc182af2e	-16.335537
53	0xc182b5d1	-16.338778
54	0xc182a55a	-16.330738
55	0xc1829741	-16.323854
56	0xc182a1ba	-16.328968
57	0xc1829b56	-16.325848
58	0xc182b1d2	-16.336826
59	0xb5800000	-9.536743e-07
60	0xc18a8b9d	-17.31817
61	0xc18364b9	-16.424181
62	0xc18364fa	-16.424305
63	0xc1836bc5	-16.427622
64	0xc1835b22	-16.419498
65	0xc1834ce4	-16.412544
66	0xc183576b	-16.417685
67	0xc1835108	-16.414566
68	0xc183678b	-16.425558
69	0xb5800000	-9.536743e-07
70	0xc1894a50	-17.161285
71	0xc1826c47	-16.30287
72	0xc1826ca7	-16.303053
73	0xc1827338	-16.30626
74	0xc18262d4	-16.298256
75	0xc18254c6	-16.291393
76	0xc1825f3b	-16.2965
77	0xc18258d5	-16.293375
78	0xc1826f4e	-16.304348
79	0xb5800000	-9.536743e-07
80	0xc16d1f02	-14.82007
81	0xc167f89e	-14.498198
82	0xc167f7ee	-14.49803
83	0xc1680296	-14.500631
84	0xc167e9a6	-14.494543
85	0xc167d2a2	-14.488924
86	0xc167de6c	-14.491802
87	0xc167d9d3	-14.49068
88	0xc1680519	-14.501245
89	0xb6900000	-4.2915344e-06
90	0xc18a84ab	-17.31478
91	0xc1839ac3	-16.450567
92	0xc1839b1a	-16.450733
93	0xc183a1de	-16.454037
94	0xc1839129	-16.445879
95	0xc18382d4	-16.43888
96	0xc1838d74	-16.444069
97	0xc1838712	-16.440952
98	0xc1839d8d	-16.45193
99	0xb5800000	-9.536743e-07
100	0xc188bea4	-17.093086
101	0xc1828813	-16.316442
102	0xc1828885	-16.31666
103	0xc1828f10	-16.319855
104	0xc1827e98	-16.311813
105	0xc1827056	-16.304852
106	0xc1827aec	-16.31002
107	0xc182747d	-16.306879
108	0xc1828ae3	-16.317816
109	0xb5800000	-9.536743e-07
110	0xc18ab5b4	-17.338722
111	0xc18388cf	-16.441801
112	0xc1838911	-16.441927
113	0xc1838fde	-16.445248
114	0xc1837f36	-16.437115
115	0xc18370ec	-16.430138
116	0xc1837b7d	-16.435297
117	0xc1837518	-16.432175
118	0xc1838b9e	-16.443172
119	0xb5800000	-9.536743e-07
120	0xc185dd77	-16.733137
121	0xc1805efb	-16.046377
122	0xc1805f8a	-16.04665
123	0xc18065b2	-16.049656
124	0xc18055dd	-16.041925
125	0xc18047e5	-16.035105
126	0xc1805264	-16.04023
127	0xc1804bdb	-16.037039
128	0xc1806244	-16.047981
129	0xb5800000	-9.536743e-07
130	0xc189381a	-17.152393
131	0xc1825e3a	-16.29601
132	0xc1825e9c	-16.296196
133	0xc182652a	-16.299397
134	0xc18254ca	-16.2914
135	0xc18246be	-16.284542
136	0xc1825133	-16.289648
137	0xc1824acd	-16.286524
138	0xc1826146	-16.297497
139	0xb5800000	-9.536743e-07
140	0xc18ab5b4	-17.338722
141	0xc18388cf	-16.441801
142	0xc1838911	-16.441927
143	0xc1838fde	-16.445248
144	0xc1837f36	-16.437115
145	0xc18370ec	-16.430138
146	0xc1837b7d	-16.435297
147	0xc1837518	-16.432175
148	0xc1838b9e	-16.443172
149	0xb5800000	-9.536743e-07
150	0xc1853f4a	-16.655903
151	0xc17ea6a3	-15.915683
152	0xc17ea7a8	-15.915932
153	0xc17eb38f	-15.918838
154	0xc17e94ba	-15.91131
155	0xc17e79a6	-15.904699
156	0xc17e8de3	-15.90964
157	0xc17e8154	-15.906574
158	0xc17eade0	-15.91745
159	0xb5800000	-9.536743e-07
160	0xc18939d8	-17.153244
161	0xc1825f94	-16.296669
162	0xc1825ff6	-16.296856
163	0xc1826684	-16.300056
164	0xc1825623	-16.292059
165	0xc1824817	-16.2852
166	0xc182528c	-16.290306
167	0xc1824c26	-16.287182
168	0xc182629f	-16.298155
169	0xb5800000	-9.536743e-07
170	0xc189731e	-17.18121
171	0xc1829a45	-16.325327
172	0xc1829aa1	-16.325502
173	0xc182a142	-16.32874
174	0xc18290ca	-16.320698
175	0xc18282ae	-16.313808
176	0xc1828d31	-16.318941
177	0xc18286c8	-16.315811
178	0xc1829d41	-16.326784
179	0xb5800000	-9.536743e-07
180	0xc18200dd	-16.250422
181	0xc1522460	-13.133881
182	0xc1521b85	-13.131719
183	0xc1523372	-13.13756
184	0xc15203d6	-13.1259365
185	0xc1520fe4	-13.12888
186	0xc1521f68	-13.132668
187	0xc15232e5	-13.137425
188	0xc15236de	-13.138395
189	0xb7880000	-1.6212463e-05
190	0xc189370d	-17.15188
191	0xc1825d71	-16.295626
192	0xc1825dd3	-16.295813
193	0xc1826461	-16.299013
194	0xc1825400	-16.291016
195	0xc18245f5	-16.284159
196	0xc1825069	-16.289263
197	0xc1824a04	-16.28614
198	0xc182607c	-16.297112
199	0xb5800000	-9.536743e-07
200	0xc188fc62	-17.123234
201	0xc182a548	-16.330704
202	0xc182a5b9	-16.33092
203	0xc182ac4a	-16.334126
204	0xc1829bca	-16.326069
205	0xc1828d7e	-16.319088
206	0xc182981b	-16.32427
207	0xc18291ae	-16.321133
208	0xc182a815	-16.332071
209	0xb5800000	-9.536743e-07
210	0xc18932c6	-17.149792
211	0xc1825a09	-16.293962
212	0xc1825a6b	-16.29415
213	0xc18260f8	-16.297348
214	0xc1825099	-16.289354
215	0xc182428e	-16.282497
216	0xc1824d02	-16.287601
217	0xc182469c	-16.284477
218	0xc1825d15	-16.29545
219	0xb5800000	-9.536743e-07
220	0xc18994d8	-17.197678
221	0xc182b0e9	-16.336382
222	0xc182b145	-16.336557
223	0xc182b7e6	-16.339794
224	0xc182a76c	-16.331749
225	0xc182994c	-16.324852
226	0xc182a3ce	-16.329983
227	0xc1829d67	-16.326857
228	0xc182b3e4	-16.337837
229	0xb5800000	-9.536743e-07
230	0xc18903bc	-17.126823
231	0xc182d6bc	-16.35485
232	0xc182d749	-16.35512
233	0xc182ddba	-16.358265
234	0xc182cd30	-16.35019
235	0xc182bedc	-16.343193
236	0xc182c97a	-16.348377
237	0xc182c320	-16.345276
238	0xc182d98a	-16.35622
239	0xb5800000	-9.536743e-07
240	0xc181737c	-16.181389
241	0xc1688eb0	-14.534836
242	0xc1688dd9	-14.534631
243	0xc168950f	-14.536391
244	0xc1687ff4	-14.531239
245	0xc16867fe	-14.525389
246	0xc1687210	-14.527847
247	0xc1686d78	-14.526726
248	0xc16896e1	-14.536836
249	0xb6800000	-3.8146973e-06
250	0xc1893d45	-17.154917
251	0xc1827279	-16.305895
252	0xc18272d9	-16.306078
253	0xc1827970	-16.309296
254	0xc1826904	-16.301277
255	0xc1825aee	-16.2944

probs f4 [32, 10]
0	0x331287dd	3.411684e-08
1	0x33a4962c	7.664161e-08
2	0x33a48d55	7.662553e-08
3	0x33a40571	7.637835e-08
4	0x33a55b5d	7.70003e-08
5	0x33a6848f	7.7540896e-08
6	0x33a5a7fa	7.713966e-08
7	0x33a62c5a	7.738045e-08
8	0x33a45d26	7.653789e-08
9	0x3f7ffff0	0.99999905
10	0x331a22e1	3.588764e-08
11	0x33ab32fb	7.972081e-08
12	0x33ab2a1e	7.970469e-08
13	0x33aa9d1a	7.9448185e-08
14	0x33abfeeb	8.009177e-08
15	0x33ad3308	8.065223e-08
16	0x33ac4e45	8.023611e-08
17	0x33acd8a2	8.0487794e-08
18	0x33aaf755	7.961231e-08
19	0x3f7ffff0	0.99999905
20	0x33237f7d	3.8067345e-08
21	0x33af7a4f	8.17132e-08
22	0x33af6f2c	8.1692946e-08
23	0x33aee239	8.143656e-08
24	0x33b04b2c	8.209312e-08
25	0x33b1885f	8.2670105e-08
26	0x33b09db7	8.224327e-08
27	0x33b12ad9	8.249999e-08
28	0x33af3e33	8.1603865e-08
29	0x3f7ffff0	0.99999905
30	0x33191afe	3.5647638e-08
31	0x33b42543	8.388681e-08
32	0x33b41ca4	8.387113e-08
33	0x33b3894e	8.3603126e-08
34	0x33b4fa44	8.427426e-08
35	0x33b638f4	8.485395e-08
36	0x33b54b75	8.442195e-08
37	0x33b5dcb0	8.468612e-08
38	0x33b3e0b3	8.3762096e-08
39	0x3f7ffff0	0.99999905
40	0x330cf0ff	3.2815475e-08
41	0x33b0ac08	8.226931e-08
42	0x33b0a521	8.2256754e-08
43	0x33b015d5	8.19961e-08
44	0x33b17d1b	8.264961e-08
45	0x33b2b3ba	8.321463e-08
46	0x33b1cfaf	8.279982e-08
47	0x33b25c61	8.3055745e-08
48	0x33b06797	8.2144815e-08
49	0x3f7ffff0	0.99999905
50	0x3310d7c9	3.3723868e-08
51	0x33accf5a	8.047091e-08
52	0x33acc7ed	8.0457404e-08
53	0x33ac38e7	8.0197246e-08
54	0x33ad9cb3	8.084444e-08
55	0x33aecfc8	8.1403016e-08
56	0x33adeb70	8.098766e-08
57	0x33ae7696	8.124077e-08
58	0x33ac8eee	8.035373e-08
59	0x3f7ffff0	0.99999905
60	0x33015a35	3.0117196e-08
61	0x339e1fde	7.363245e-08
62	0x339e1ac5	7.362318e-08
63	0x339d94d2	7.3379525e-08
64	0x339eddc8	7.39779e-08
65	0x339ff998	7.449415e-08
66	0x339f27b2	7.411235e-08
67	0x339fa6e1	7.4343696e-08
68	0x339de829	7.353112e-08
69	0x3f7ffff0	0.99999905
70	0x331752f4	3.5232873e-08
71	0x33b284ce	8.312928e-08
72	0x33b27c70	8.311406e-08
73	0x33b1ea15	8.284784e-08
74	0x33b35810	8.3513555e-08
75	0x33b49439	8.408865e-08
76	0x33b3a8e0	8.366055e-08
77	0x33b438cb	8.392234e-08
78	0x33b24137	8.3006334e-08
79	0x3f7ffff0	0.99999905
80	0x34c49aee	3.662057e-07
81	0x3507a106	5.052574e-07
82	0x3507a6da	5.053422e-07
83	0x35074c9f	5.040292e-07
84	0x35082024	5.071072e-07
85	0x3508e482	5.099647e-07
86	0x35087fc9	5.08499e-07
87	0x3508a711	5.090706e-07
88	0x3507376c	5.037207e-07
89	0x3f7fffba	0.9999958
90	0x3301cab2	3.0219503e-08
91	0x339a01b9	7.171497e-08
92	0x3399fb1b	7.1702935e-08
93	0x33997919	7.146645e-08
94	0x339abafe	7.2051975e-08
95	0x339bd117	7.255783e-08
96	0x339b02af	7.218238e-08
97	0x339b7e8d	7.2407694e-08
98	0x3399cc11	7.161737e-08
99	0x3f7ffff0	0.99999905
100	0x33220117	3.7719555e-08
101	0x33b01cb6	8.200861e-08
102	0x33b012e9	8.1990784e-08
103	0x33af830d	8.1729105e-08
104	0x33b0edd0	8.2388965e-08
105	0x33b22a3e	8.296455e-08
106	0x33b13f18	8.2536815e-08
107	0x33b1cdf2	8.279666e-08
108	0x33afded7	8.189607e-08
109	0x3f7ffff0	0.99999905
110	0x32fd7112	2.9504495e-08
111	0x339b5cdb	7.23464e-08
112	0x339b57d9	7.233729e-08
113	0x339ad3ef	7.209734e-08
114	0x339c179b	7.26861e-08
115	0x339d2f62	7.319501e-08
116	0x339c6062	7.281848e-08
117	0x339cdd7f	7.304606e-08
118	0x339b2646	7.224712e-08
119	0x3f7ffff0	0.99999905
120	0x336831af	5.4061896e-08
121	0x33e6b73b	1.0743539e-07
122	0x33e6a702	1.0740588e-07
123	0x33e5f5c8	1.0708351e-07
124	0x33e7bec0	1.0791473e-07
125	0x33e954c7	1.0865329e-07
126	0x33e82351	1.0809766e-07
127	0x33e8e15d	1.0844335e-07
128	0x33e65874	1.0726299e-07
129	0x3f7ffff0	0.99999905
130	0x3318acf4	3.5547558e-08
131	0x33b3bf56	8.370141e-08
132	0x33b3b6bd	8.368577e-08
133	0x33b323ba	8.341836e-08
134	0x33b493df	8.408801e-08
135	0x33b5d209	8.4666745e-08
136	0x33b4e510	8.4235694e-08
137	0x33b575f9	8.4499284e-08
138	0x33b37aee	8.357698e-08
139	0x3f7ffff0	0.99999905
140	0x32fd7112	2.9504495e-08
141	0x339b5cdb	7.23464e-08
142	0x339b57d9	7.233729e-08
143	0x339ad3ef	7.209734e-08
144	0x339c179b	7.26861e-08
145	0x339d2f62	7.319501e-08
146	0x339c6062	7.281848e-08
147	0x339cdd7f	7.304606e-08
148	0x339b2646	7.224712e-08
149	0x3f7ffff0	0.99999905
150	0x337ad66f	5.8402687e-08
151	0x340376c4	1.2243532e-07
152	0x34036e64	1.2240486e-07
153	0x34030cc3	1.2204968e-07
154	0x34040a3f	1.2297185e-07
155	0x3404ea73	1.237875e-07
156	0x340442be	1.2317739e-07
157	0x3404aab7	1.2355564e-07
158	0x34033b59	1.2221916e-07
159	0x3f7fffee	0.9999989
160	0x33188bb8	3.551733e-08
161	0x33b3a0fb	8.364619e-08
162	0x33b39863	8.363056e-08
163	0x33b30579	8.3363325e-08
164	0x33b4758d	8.4032855e-08
165	0x33b5b381	8.461121e-08
166	0x33b4c683	8.418012e-08
167	0x33b55753	8.4443535e-08
168	0x33b35ccb	8.352216e-08
169	0x3f7ffff0	0.99999905
170	0x331456c0	3.4537834e-08
171	0x33ae8def	8.128324e-08
172	0x33ae8618	8.126898e-08
173	0x33adf5a1	8.10062e-08
174	0x33af5d2f	8.1660225e-08
175	0x33b0938a	8.222476e-08
176	0x33afac34	8.180396e-08
177	0x33b03919	8.206025e-08
178	0x33ae4cdd	8.116488e-08
179	0x3f7ffff0	0.99999905
180	0x33bc21b4	8.760563e-08
181	0x3604ae47	1.9770976e-06
182	0x3604f7cb	1.9813767e-06
183	0x3604318a	1.9698368e-06
184	0x3605bd30	1.9928666e-06
185	0x36055892	1.98701e-06
186	0x3604d782	1.9794975e-06
187	0x36043617	1.9701017e-06
188	0x36041547	1.9681918e-06
189	0x3f7ffef0	0.9999838
190	0x3318c117	3.5565872e-08
191	0x33b3d112	8.373367e-08
192	0x33b3c877	8.3718014e-08
193	0x33b33566	8.34505e-08
194	0x33b4a5b0	8.4120416e-08
195	0x33b5e3f8	8.4699366e-08
196	0x33b4f6e9	8.426816e-08
197	0x33b587b2	8.453152e-08
198	0x33b38ca3	8.360919e-08
199	0x3f7ffff0	0.99999905
200	0x331d316f	3.659937e-08
201	0x33ad9e3a	8.0847215e-08
202	0x33ad94bb	8.082994e-08
203	0x33ad0667	8.057105e-08
204	0x33ae6cb5	8.12228e-08
205	0x33afa583	8.179179e-08
206	0x33aebd2d	8.136917e-08
207	0x33af49ab	8.162473e-08
208	0x33ad6191	8.0736875e-08
209	0x3f7ffff0	0.99999905
210	0x331912c6	3.5640163e-08
211	0x33b41db2	8.387305e-08
212	0x33b41514	8.385737e-08
213	0x33b381c4	8.358941e-08
214	0x33b4f2ab	8.426044e-08
215	0x33b6314d	8.484003e-08
216	0x33b543d9	8.440811e-08
217	0x33b5d50d	8.467223e-08
218	0x33b3d926	8.374836e-08
219	0x3f7ffff0	0.99999905
220	0x3311ea80	3.397372e-08
221	0x33aca2a7	8.0389604e-08
222	0x33ac9ae5	8.037549e-08
223	0x33ac0c05	8.0115605e-08
224	0x33ad6fcb	8.076275e-08
225	0x33aea313	8.1321694e-08
226	0x33adbe48	8.090552e-08
227	0x33ae49a1	8.1158994e-08
228	0x33ac624c	8.027254e-08
229	0x3f7ffff0	0.99999905
230	0x331ca13e	3.646823e-08
231	0x33a979d5	7.891837e-08
232	0x33a96e40	7.88973e-08
233	0x33a8e5f6	7.864939e-08
234	0x33aa448d	7.928711e-08
235	0x33ab7693	7.9843765e-08
236	0x33aa939b	7.943091e-08
237	0x33ab1b3f	7.967764e-08
238	0x33a93e75	7.8810366e-08
239	0x3f7ffff0	0.99999905
240	0x33c993d3	9.386681e-08
241	0x3502bfef	4.8708074e-07
242	0x3502c6cc	4.871806e-07
243	0x35028be9	4.863237e-07
244	0x3503388f	4.8883606e-07
245	0x3503fda5	4.9170404e-07
246	0x3503aaac	4.9049663e-07
247	0x3503d07f	4.9104705e-07
248	0x35027d0f	4.861076e-07
249	0x3f7fffbe	0.99999607
250	0x33184a86	3.5458037e-08
251	0x33b1fac4	8.287819e-08
252	0x33b1f26d	8.286302e-08
253	0x33b15ffe	8.259666e-08
254	0x33b2cd8f	8.326162e-08
255	0x33b40979	8.383626e-08
