LibraForWebRTC/rl_script/loki/models/gcc_module_2.pt (torch, 16775 bytes, 9 tensors)

weight f4 [32, 10]
00000000: cdcc 893f 8553 223f 9f84 a23f bcaf babc
00000010: ff37 813f 6a98 03bf db4f 8e3f de89 1c3d
00000020: 9798 93bf 7a45 953d 1452 bcbd 6b44 bbbe
00000030: 79ba b03d ce64 d53e a3d7 e33e 7bc3 9abe
00000040: 03ca e53e 8c8c 81be 0642 163e 24e2 063f
00000050: c4a1 b23e 31d4 81ba 5a82 973e 80a5 a0bb
00000060: dcca 793c 6c5d 06bb f2e3 1040 2453 0abb
00000070: 639f 2f41 5c0c c43c a51d 963d 266d fdbc
00000080: 5dab 08bf 6313 d23d cb6d 03bf 1cfd 403e
00000090: 5c02 1f3f 8ea0 383f eb15 4040 ca52 95bc
000000a0: 45d4 443f bb52 7fbd 79cb d93e 7a2c 013d
000000b0: d4e9 9a3f 842e 013e 3aa7 bb3e 5d49 823f
000000c0: 6e71 0fc0 dc69 1d3e fd91 85bf 9b4d a33e
000000d0: a4ae 36be 2efb 17be 838f 90be 1880 c23d
000000e0: a8f8 213f f240 463e 791a 3940 ac85 863d
000000f0: 2771 023d f060 dc3d 0cf5 3ebd ac54 853d
00000100: c8cb 333f f77c a53e ca76 a63f 11a0 efba
00000110: 5f66 7440 2fc2 67bf 7bbf 30bf fe2a 403b
00000120: fa94 45bf 1605 14bf c626 8abf 3cc8 e83c
00000130: fd1e 6dbf 986d 05bf 0d9b a93f e5c7 81be
00000140: 4b78 b0be 0c76 0abe 6923 d0be d2e2 b9bc
00000150: 8f09 38bf 40a9 013f 6a64 abbe b8f6 d4be
00000160: 33df d43f 3f41 b33e 0e5f 043e 2278 853f
00000170: 3fa0 603f f71a 813e 42b3 71be 9f0e dc3e
00000180: 4e48 313e 5c9d ccbe b99d 64bf adcd 54be
00000190: 1ca1 023f a4c1 e8be a07b c4bc d896 c2bd
000001a0: 778a adbe c089 913e c33b b83e 9f87 923e
000001b0: cea2 fc3f 2d50 8cbe 5c87 1d3f e125 353e
000001c0: c393 33be 432c 133e 787b 5b3e 7af4 83be
000001d0: 5970 663f a8fd 1bbe 184c 9d40 d956 0f3e
000001e0: 4125 5bbf 0c0f 6c3b 4ffb e3be 05ec bb3d
000001f0: 5c77 52bf 3a29 9dbe 4ec6 fc3e 201c aa3d
00000200: b03d 9440 9dc2 873e 67ab 2d3f e0ad fbbe
00000210: 2554 4f3f 11b5 c93e 26c3 2b3f e5d2 c13e
00000220: 976a f23e e134 8c3c 6ca5 51c0 9b93 02be
00000230: e1ac 923f 830c 423f ac26 bb3f 987c a13e
00000240: cf82 273f f278 0e3e 900b 913f 0bb2 293c
00000250: 6e4a 6340 2238 dc3c 2d7d 9cbf 97ef 243d
00000260: a27a cabf 88cf 743f 8880 21bf a1cd 9b3e
00000270: c447 31be 8a5d dabd 4689 66be b0ff 843d
00000280: 997d 72bf c2f7 f0bd 7f74 4cbf f7b9 743e
00000290: 2e8e 83bf ebb4 63be e563 c1bf 64f8 573d
000002a0: 5f17 9ac0 f4b8 e5bd 6325 2c3d 20dd db3e
000002b0: 29c8 a83d 5e60 8e3e 0fef 31bf f6f5 043f
000002c0: af3e 08be ded0 92be 013d fc3f 87ce 38be
000002d0: 09ba 76bf 2e19 16be c9d8 85bf 2b3b ad3d
000002e0: 6d9c abbf 494a e63e 888e a7bf a7a9 533e
000002f0: d994 ef3f 5511 abbe 5721 9e3c f914 aebc
00000300: de98 c93d 4cc9 ab3d ac40 f83e 3102 b43d
00000310: 60d8 4b3e 5792 b2be 32a4 aec0 8233 e93d
00000320: b678 9a3f 08d3 d0be 183b 1dbd 911d 18be
00000330: 34c3 da3e b616 96bd cdef 273f dad6 51bd
00000340: da2e 6540 9905 bb3e d33d 573f 6888 843e
00000350: d382 bd3e 5bbc febe cde1 823f 0565 2d3e
00000360: 5e80 07be 128e ca3e d2f5 a3c0 5210 b8bd
00000370: 3551 dc3f d18b ea3d 43f4 c33f e32d f3be
00000380: eb80 fe3e ba66 883e 218a cd3f 12cf bf3d
00000390: 20ef 0e40 ba16 9cbd 6fc9 c33e 40f8 153e
000003a0: 58da 0b3f 2daf 8a3d 4bc9 023f 7770 eebd
000003b0: 7ac9 3bbe a922 c33d e171 90c0 a136 7d3d
000003c0: fb23 493f ab33 bbbd ca2c 933f b54f 183e
000003d0: 1b8a 183f 6841 c6bd 6396 1e3f 1ea0 163f
000003e0: ab9e a040 886a a3be a088 b63e 8fd8 283e
000003f0: 4d44 7d3e 44e8 f8bd 1a4b 973f 5244 0ebf
1.0765625 0.6340869 1.2696723 -0.022788875 1.0095214 -0.5140444 1.111812 0.038217418
-1.1530942 0.07288642 -0.09195343 -0.36575636 0.08629317 0.4167847 0.44500455 -0.30227265
0.44880685 -0.2530254 0.14673623 0.52688813 0.34889042 -0.0009905157 0.29591638 -0.0049025416
0.015246119 -0.002050246 2.2639127 -0.0021106685 10.976413 0.023931675 0.07329873 -0.030935835
-0.5338648 0.10257604 -0.51339406 0.18846554 0.62112975 0.72119987 3.0013378 -0.018227953
0.768864 -0.062334757 0.4253805 0.031536557 1.2102609 0.126154 0.3665102 1.0178639
-2.2412982 0.15372413 -1.0435177 0.31895146 -0.17840058 -0.14841911 -0.2823449 0.09497088
0.63270044 0.19360712 2.8922408 0.06568465 0.03184619 0.10760677 -0.046620414 0.065102905
0.7023282 0.32321903 1.3005002 -0.0018281956 3.8187482 -0.90530676 -0.69042176 0.00293225
-0.77180445 -0.5782026 -1.0793083 0.028415792 -0.9262541 -0.5212035 1.3250443 -0.2534782
-0.34466776 -0.13521594 -0.40652016 -0.022691164 -0.71889585 0.5064888 -0.33475047 -0.4159448
1.6630615 0.35010716 0.12926885 1.0427287 0.87744516 0.25215885 -0.23603538 0.42979905
0.17312738 -0.39963806 -0.89303166 -0.20781584 0.51027083 -0.45460236 -0.02398473 -0.095014274
-0.33894703 0.28425407 0.35983095 0.28619096 1.9737184 -0.2740492 0.61534667 0.17690231
-0.17536835 0.14372353 0.21433818 -0.25772458 0.9001518 -0.15233481 4.915539 0.13997974
-0.8560372 0.003601971 -0.4452767 0.091758765 -0.8221338 -0.30695516 0.49370044 0.08306146
4.63253 0.26515666 0.67839664 -0.49156094 0.8098777 0.39395955 0.6709465 0.37856212
0.47346947 0.017115058 -3.2757215 -0.1275162 1.1459008 0.7580034 1.4621177 0.3154037
0.65433973 0.13913324 1.1331654 0.01035739 3.5514178 0.026882235 -1.2225701 0.040267553
-1.5818675 0.9562917 -0.6308675 0.3043032 -0.17312533 -0.106623724 -0.22513303 0.06494081
-0.94722897 -0.11766006 -0.7986526 0.23899065 -1.0277765 -0.22236983 -1.510861 0.052727118
-4.815353 -0.11216918 0.042027842 0.42942142 0.082413025 0.27807897 -0.695054 0.51937807
-0.13305162 -0.28674978 1.9706117 -0.18047534 -0.9637762 -0.14658043 -1.0456783 0.08458551
-1.3407112 0.4497855 -1.3090372 0.20670186 1.87173 -0.3341166 0.019303007 -0.021250235
0.0984361 0.08388004 0.4848684 0.087894805 0.1990676 -0.34877273 -5.4575434 0.113867775
1.2068088 -0.40786004 -0.038386434 -0.14855029 0.42727053 -0.073285505 0.6560028 -0.05123029
3.5809846 0.36527708 0.8407871 0.2588532 0.37013873 -0.4975308 1.0225159 0.16933067
-0.13232562 0.39561516 -5.1237574 -0.08987488 1.7212282 0.11452449 1.5308918 -0.47495946
0.49707732 0.26640874 1.6057779 0.093656674 2.233345 -0.07621522 0.3823962 0.14645481
0.5463004 0.067716934 0.510884 -0.11642545 -0.18338576 0.09528095 -4.513901 0.061819676
0.78570527 -0.09140714 1.1498044 0.14874156 0.5958573 -0.09680444 0.6194822 0.5883807
5.0193686 -0.31917214 0.35651112 0.1648886 0.24733086 -0.12153676 1.1819794 -0.55573

bias f4 [32]
00000000: f585 5c3d 0e8d 843f 5c4b 9dbf ab6d 02c0
00000010: cd1a 4b3f 214f f0bf 5b5a 7c3e 6800 4d3e
00000020: c3e8 c8bf e214 a03f e5ae 51be 152f 77bf
00000030: 2e2f e2bf 59cc 303f e035 52bf aa01 90bf
00000040: aa78 f33f c657 25bf ee4e ebbf 01e7 db3f
00000050: 95c7 41be 0bbc 963d e249 6a3f fd2a c43f
00000060: edfa 17bf b41c 003e 5aa8 24bf 059f 82be
00000070: 9593 aabe e2eb 713e b04a 58bf 3c98 463f
0.05383869 1.0355546 -1.2288623 -2.0379436 0.7933777 -1.8774148 0.24643843 0.20019686
-1.5696033 1.2506373 -0.20476873 -0.96556216 -1.7670648 0.6906181 -0.82113457 -1.1250508
1.9021199 -0.64587057 -1.8383462 1.7179872 -0.18923791 0.07360085 0.91518986 1.5325619
-0.5936726 0.1251095 -0.64319384 -0.25511947 -0.3331572 0.23625138 -0.84488964 0.7757604

weight f4 [32, 32]
00000000: d093 15bd 6909 cdbe 3b47 283f 3639 513c
00000010: 437b 6fbe b844 cc3e 9fef 413f c507 683e
00000020: c0a5 acbd 8468 78bd 23d4 5b3e 021e 90be
00000030: 2e20 3bbe 9f6b 09be a9d3 c73e d118 d73e
00000040: 43ca 6dbf 55e1 183e f28a 133e 7006 ecbe
00000050: c2da 873e 5b60 533f 746a ff3d 0924 68be
00000060: f4f8 dbbe 0c18 3a3c 537a cb3e 134f 3ebe
00000070: f129 35bf af1f 57be 4329 303f 7d4b 29be
00000080: 66cb cd3d 03ef 613e 52cf 48bf 4231 883e
00000090: 1eec 97bc 6ee1 f3be dd56 9ebe 7cc9 f23d
000000a0: 6844 c4bd 5ac1 923d add9 0abf dc67 453e
000000b0: 7b2b 683d 57c9 8f3f b731 bebe bb52 4b3f
000000c0: 7f8a d53d 5212 e43e 1195 aebe 959e 0c3f
000000d0: 466a babe c7be adba ff9d 0dbf e9a5 e8be
000000e0: 77e2 753e 8e9a 5ebf 3de0 c03e 55b3 dabe
000000f0: a078 5abe 20fb a7bd 646b a0be 0934 ab3e
00000100: 110b 3bbd f80a ff3e 9739 59bf fcc0 d4be
00000110: 1222 ef3e d7ab 6bbe 52cd c8be f54c a33e
00000120: 7cb7 8b3e 7e10 853e 38bd 873e c674 663d
00000130: d5ec 303f ed39 e1bd 40dd 313e 7e31 d2be
00000140: f9c5 a3bd 71b5 e4be aebb 2f3e 4b65 b4bd
00000150: 77d1 b63e 84be cd3d 2fd9 21bc 0ce0 5b3d
00000160: af14 52be ecde 3bbe c747 573f c905 bd3e
00000170: e0b3 093f e192 a6bd aa1b 8abe ad1f 083f
00000180: 188c 413e 0bd6 083e 253a 103f ea9c ee3e
00000190: b16c a93e 0c44 c63e 3769 813e 0be6 00bf
000001a0: d5d6 fdbe 6821 68be 7670 05bf 8932 1bbd
000001b0: 9dc3 90be 3451 1dbe 4287 d53d 924b aabd
000001c0: 1a5d e6be 4df4 e63e 6741 cabe d11b 4ebf
000001d0: 9f3e 923c 50b7 08bf 3fa7 b5bc d8e8 05bf
000001e0: d43a 173e f161 07bf 227b 483d a477 c73e
000001f0: c197 1ebe b476 59bf 335f d5be 68c9 1b3e
00000200: 5bc3 01bf f86f 6abe 09b5 ac3e 8879 d33c
00000210: bb46 683e 43b4 3dbe d55c d73e 9085 c3be
00000220: 0e30 f9be 3b0e 7a3c 0804 27be 1910 813e
00000230: 3665 363b 1170 e8bd d078 6fbe 8553 60bf
00000240: 0d2e 033f 06d1 ab3e 261b 02bd e2f9 a1be
00000250: 315a 153e d8ca 0bbf 8d51 c13e 43fb ff3e
00000260: 5438 843f 74c5 0d3f 8957 8f3e 4649 cbbc
00000270: 3461 a2bf 64f2 b33d bf39 dc3e 0c0c 0c3e
00000280: dd5f adbb 192d efbd ba30 d73e f0c4 bebe
00000290: 7e8f 83be d219 58bf 529e 60bf 56c9 953e
000002a0: e03f 34be fc17 1d3f d8e7 a3be 1059 8f3d
000002b0: 48b0 a0bd eb50 b93e 112e 7e3e f0dd e43c
000002c0: 297c 1c3e 6e62 16bf 80c2 babc 964f 993e
000002d0: d820 b8bd c9db 4d3e be46 113d 871f 973d
000002e0: dc0d 063a 64d2 efbe d849 c33d 3a8f 69bc
000002f0: 4b4a 64be 0f39 d53e 9b9c d2be 4afb 97bd
00000300: 4e0f 72be 5991 07bf 3b39 fb3f 0a65 ac3e
00000310: 589f 73be 0ac6 f03e 0d7a 093f 1685 bebc
00000320: 09ec 823e 1f0a 883e 7b30 20bf 6cb2 113e
00000330: ed17 5fbd 091f 7a3e 8199 6abe 5cf4 4fbf
00000340: 14ca 243e 2132 31be d1be b93e 32da bcbe
00000350: 35c5 b33d 34b4 0dbe f59a b9bd ca9f 863e
00000360: 5536 f73c 7d54 19bf f9c6 eebd 41d8 c33d
00000370: 5121 fd3e 8f2f 09bf ff22 e6be 24ff 36be
00000380: 132c 0a3f 4498 0d3f 91c7 933f bef4 233e
00000390: d40e a9be 35a5 34be 9a96 d83b 5e5a 4abb
000003a0: 79a1 10bf eebf e0bd 6613 523f d08f 11be
000003b0: 227f ab3d 0777 ad3e 4dbc c93e 8582 36be
000003c0: 0025 713f 3cf5 553e e60d 143e 7670 5cbe
000003d0: 8471 c23e ede7 b9be 233e c0be 090e 2d3f
000003e0: 819d 613f cb05 18bf 13a4 e13e f786 04be
000003f0: 045b 8f3e f58a 14bf f5e2 933b fcfe e03e
-0.036517918 -0.40046242 0.6573369 0.012769988 -0.23386864 0.39896178 0.7575626 0.22659214
-0.08430052 -0.06064655 0.21467642 -0.28147894 -0.18273994 -0.1341996 0.3902867 0.4201112
-0.9288675 0.14929707 0.14408472 -0.4609866 0.26534086 0.825689 0.12471476 -0.22669996
-0.42963374 0.011358272 0.39741763 -0.18584852 -0.7076712 -0.2100818 0.6881296 -0.16532703
0.10048561 0.22063832 -0.78441346 0.2660008 -0.018545207 -0.47632927 -0.30925646 0.11854836
-0.0958336 0.07165785 -0.54238397 0.192779 0.05668209 1.1233319 -0.37147304 0.7942311
0.10426807 0.44545227 -0.34098104 0.54929477 -0.36409205 -0.0013255709 -0.5531921 -0.4543908
0.2401217 -0.8695458 0.3767108 -0.42714944 -0.21335077 -0.08202195 -0.31331933 0.33438137
-0.04566485 0.49813056 -0.848535 -0.41553485 0.4670568 -0.2301477 -0.39219147 0.3189465
0.27288425 0.25989145 0.2651155 0.056263708 0.69111377 -0.109973766 0.17369556 -0.41053385
-0.07996745 -0.4466968 0.17161438 -0.088083826 0.35706684 0.100461036 -0.009878441 0.053680465
-0.20515703 -0.18346757 0.840939 0.36918476 0.5379009 -0.08133484 -0.2697423 0.53173333
0.18901098 0.13362901 0.5633872 0.4660409 0.33090737 0.3872379 0.25275585 -0.5035102
-0.49577966 -0.22668993 -0.52124727 -0.03788999 -0.2827424 -0.15363008 0.10426189 -0.08315195
-0.44992906 0.45108262 -0.39503023 -0.80511194 0.017852126 -0.5340471 -0.022174476 -0.52308416
0.14768535 -0.5288382 0.048945554 0.38958466 -0.15487577 -0.8494675 -0.41674194 0.15213549
-0.50688714 -0.22894275 0.3373187 0.025814787 0.22683232 -0.18525796 0.42063013 -0.38187838
-0.48669475 0.015262182 -0.16310132 0.25207594 0.0027831323 -0.113495 -0.2338593 -0.8762744
0.5124214 0.3355791 -0.031764172 -0.31635958 0.14585187 -0.5460639 0.3775753 0.49996385
1.032969 0.55379415 0.27996472 -0.024815213 -1.2685914 0.08786467 0.43012807 0.1367647
-0.005290969 -0.116785236 0.42029363 -0.37259626 -0.25695413 -0.844144 -0.8774158 0.2925517
-0.17602491 0.6136472 -0.3201282 0.06999409 -0.07846123 0.36194548 0.2482226 0.02793786
0.15281738 -0.5874394 -0.022797823 0.29943532 -0.089906394 0.20103373 0.035467856 0.0737906
0.00051137595 -0.46840203 0.09535569 -0.014255339 -0.22293966 0.41645095 -0.41135105 -0.074209765
-0.23638651 -0.5295616 1.962684 0.33670837 -0.23791254 0.47026092 0.5370186 -0.02325682
0.25570706 0.26570222 -0.62573975 0.14228219 -0.054466177 0.24425901 -0.2291012 -0.8123224
0.16092712 -0.17304279 0.36278394 -0.3688522 0.08777849 -0.13838273 -0.09062759 0.26293784
0.030177275 -0.59894544 -0.11659045 0.095627315 0.4943948 -0.53588194 -0.44948575 -0.17870766
0.539735 0.55310464 1.1545278 0.1601133 -0.33019125 -0.17641146 0.00660975 -0.0030876617
-0.5649639 -0.10974108 0.8206085 -0.14215016 0.08373858 0.33879873 0.39401475 -0.17823227
0.9419708 0.2089433 0.14458427 -0.21527275 0.3797723 -0.36309758 -0.37547407 0.6759954
0.88130957 -0.5938384 0.4407049 -0.1294211 0.27999127 -0.5802453 0.0045131394 0.43944538

bias f4 [32]
00000000: 3ead 7e3f f358 583f 6c35 a3bf 4c7f 9a3f
00000010: fae6 51bf 9180 df3f e79b 50bf 16e7 533e
00000020: 0e26 3cbf 24c5 a13f 64fb 513f 4612 82bf
00000030: 88af b6be 616a b6bf 520a d13f cbca 0dbf
00000040: 0ee8 0ebf 3708 9c3f fbd2 ad3f d380 9bbf
00000050: 2e0a 67bf d8e6 523f 7e9b b33f 4230 8d3e
00000060: 7fb2 8cbf fece e93d 7f7c 9a3f 6823 c2bf
00000070: 1c1b 873d f9e7 7fbf d12b 2bbf dc40 d73e
0.99483097 0.84510726 -1.2750678 1.2070098 -0.8199307 1.746111 -0.8148789 0.20693621
-0.73495567 1.2638288 0.82024217 -1.0161827 -0.35680795 -1.4251214 1.6331275 -0.5538756
-0.5582284 1.2190007 1.3580011 -1.2148689 -0.9024991 0.8238349 1.4031827 0.2757588
-1.0991973 0.11416434 1.2069243 -1.5167055 0.065969676 -0.9996334 -0.66863734 0.4204167

weight f4 [10, 32]
00000000: fece 9fbf 1e58 5abf 7a04 0f40 b72c acbf
00000010: c6a3 693e fc91 89c0 6423 6c3f 47bd 45bf
00000020: c3db 663f af54 cdbf 9317 09c0 1841 9d3f
00000030: dcaa b23e f553 0740 6f0d 53c0 7592 ce3e
00000040: d9cc 7f3f 6472 04c0 caa4 e6bf ff77 0840
00000050: dd48 ab3e 128f d5be 3581 41c0 7abd 0a3f
00000060: c81e bf3f f935 713e a398 d8bf 825b 5d40
00000070: fe26 8c3e 5522 f93f d696 47be beee 2bbf
00000080: 49f7 9fbf ad4f 5abf 87e3 0e40 7e59 acbf
00000090: 8c66 693e 427f 89c0 2eec 6b3f 87fa 45bf
000000a0: 3885 663f b93c cdbf 4725 09c0 6168 9d3f
000000b0: 0bce b23e 9435 0740 7a49 53c0 d6c2 cd3e
000000c0: 7571 7f3f 987f 04c0 918d e6bf 0e9e 0840
000000d0: d0af ab3e a7dd d5be e956 41c0 3ddc 0a3f
000000e0: 65e0 be3f fc80 703e ee77 d8bf 6e5a 5d40
000000f0: ee21 8b3e f44f f93f 7d87 4abe c582 2cbf
00000100: 47c0 9fbf 7e63 5abf 4ad7 0e40 904c acbf
00000110: ffa8 6a3e 2f82 89c0 ac0a 6c3f 9a08 46bf
00000120: a027 673f 1d5b cdbf 9136 09c0 a347 9d3f
00000130: 418b b23e 3747 0740 8473 53c0 e1a5 ce3e
00000140: 3bc2 7f3f 6e65 04c0 4694 e6bf 146c 0840
00000150: dc7c ab3e 902f d6be dc63 41c0 82d5 0a3f
00000160: a8bf be3f b2a5 713e d039 d8bf e040 5d40
00000170: 992c 8c3e 7249 f93f 978b 48be 7e62 2cbf
00000180: 44c7 ed3e d252 a2be 314f e33e 6c9e ce3e
00000190: 9685 313f 227b 183f 88fa 0c3f c429 e53e
000001a0: 6f0d b03e b7ca 13bf 3382 90be 51c9 2ebf
000001b0: 9c55 143f 7b00 53bf 6c29 283f ef29 11bf
000001c0: 3bd1 123f 7b6e 2f3f 095b acbe 3138 03bf
000001d0: 6157 2d3f 8d60 183f f3cf 25be 5442 253f
000001e0: d7e5 d1be b49d c7be 3887 27bf b9b4 09bf
000001f0: 4758 6d3e 20ae 563e 77bc 2fbf 81e7 efbe
00000200: b4c7 9fbf 2dea 59bf 99c9 0e40 3627 acbf
00000210: 4ed4 6a3e 8a8c 89c0 bcd9 6b3f e5ed 45bf
00000220: d715 673f 970e cdbf 4623 09c0 083f 9d3f
00000230: d04d b23e ce4a 0740 4127 53c0 1a0d ce3e
00000240: 9540 7f3f c553 04c0 30f9 e6bf e460 0840
00000250: 1194 ab3e 1cf8 d5be 8e9b 41c0 c3dd 0a3f
00000260: cffe be3f 8ee4 6f3e d680 d8bf 578a 5d40
00000270: d26a 8b3e 5b01 f93f 2408 4abe 525d 2cbf
00000280: 6cd0 93be 9421 193f 5242 24bf 8268 9dbe
00000290: edf0 4abf ab58 01be 6ebe 3bbf 05fc b2be
000002a0: d64b 4bbf 4f68 7c3f 5493 d43e 66a5 c63e
000002b0: 52f9 28bf 96fd 0e3f 4e68 343e e86d f63e
000002c0: f4a5 1bbf bfe1 adbe 64ca 273f 2fde 823e
000002d0: 428b 32bf 92fd f4be e737 723f 3d36 17bf
000002e0: f5a1 9d3e 26a7 a73e 053f 553f 0023 94bd
000002f0: 328b 39be d68c e5be 604c 203f 4867 cb3e
00000300: 67c9 9fbf e047 5abf fd01 0f40 744b acbf
00000310: 22f6 6a3e 5179 89c0 e814 6c3f 97ff 45bf
00000320: 1e05 673f 6e55 cdbf 2727 09c0 5841 9d3f
00000330: 99cc b23e 633e 0740 573e 53c0 f313 ce3e
00000340: 9886 7f3f 5f6a 04c0 0abc e6bf e484 0840
00000350: 85c4 ab3e 2f10 d5be a790 41c0 a8dc 0a3f
00000360: ced3 be3f f4f4 6f3e 6075 d8bf 3f4e 5d40
00000370: fd33 8c3e 6e40 f93f 3b48 49be eec1 2bbf
00000380: ffc9 9fbf 976a 5abf f0ea 0e40 323c acbf
00000390: 95bd 6a3e 7880 89c0 883a 6c3f 55cd 45bf
000003a0: a2e0 663f 9730 cdbf 2c1b 09c0 1d2b 9d3f
000003b0: c364 b23e 2247 0740 480e 53c0 085b ce3e
000003c0: 21a2 7f3f b36c 04c0 74df e6bf df83 0840
000003d0: 16ca ab3e 24c9 d5be 6081 41c0 1def 0a3f
000003e0: 1c27 bf3f 9dfc 723e e597 d8bf aa5e 5d40
000003f0: 7df9 8b3e 9518 f93f 7a34 49be 9525 2cbf
-1.2485044 -0.85290706 2.2346482 -1.3451146 0.22816381 -4.2990704 0.922415 -0.7724194
0.9017908 -1.6041468 -2.1420639 1.228549 0.3489598 2.1144993 -3.297695 0.40346113
0.9992195 -2.0694818 -1.801904 2.132324 0.33454028 -0.41710716 -3.0235112 0.5419537
1.4931269 0.23555745 -1.6921581 3.4587102 0.273735 1.9463602 -0.19491133 -0.67161167
-1.249734 -0.85277826 2.2326372 -1.3464811 0.22793025 -4.2967844 0.92157257 -0.773354
0.90047026 -1.6034156 -2.1429002 1.2297479 0.34922823 2.1126451 -3.3013597 0.4018771
0.99782497 -2.0702877 -1.8011953 2.134647 0.33532572 -0.4177067 -3.0209296 0.54242307
1.491223 0.23486704 -1.69116 3.4586444 0.27174324 1.9477525 -0.19778247 -0.6738704
-1.2480553 -0.85308063 2.2318902 -1.3460865 0.2291603 -4.2971416 0.92203784 -0.77356875
0.9029484 -1.604343 -2.1439555 1.2287487 0.34871867 2.1137216 -3.3039255 0.4036093
0.9990575 -2.0686908 -1.8014 2.1315966 0.33493698 -0.41833162 -3.02172 0.5423204
1.4902239 0.23598364 -1.6892643 3.4570847 0.27377775 1.9475539 -0.195845 -0.6733779
0.4644109 -0.31703812 0.44396356 0.4035524 0.6934446 0.59562886 0.5506978 0.44758427
0.3438525 -0.57731193 -0.28224334 -0.68275934 0.5794313 -0.8242261 0.65688205 -0.5670461
0.5735051 0.68527955 -0.33663204 -0.51257616 0.67711455 0.59522325 -0.16192608 0.64554334
-0.40995666 -0.38987505 -0.654407 -0.53791386 0.23178206 0.20964861 -0.6864695 -0.4685631
-1.248282 -0.8512295 2.2310545 -1.3449466 0.2293255 -4.2984056 0.9212911 -0.77316123
0.902677 -1.6020077 -2.142778 1.2284861 0.3482499 2.1139407 -3.2992709 0.4024437
0.9970792 -2.067613 -1.8044796 2.1309137 0.33511403 -0.41790855 -3.0251193 0.5424463
1.4921511 0.2342703 -1.6914318 3.4615686 0.27229935 1.9453539 -0.19729668 -0.67329895
-0.2886995 0.5981686 -0.64163697 -0.30743796 -0.79273874 -0.1263148 -0.7333745 -0.349579
-0.7941259 0.9859666 0.41518652 0.38798064 -0.6600543 0.5585569 0.17617914 0.48130727
-0.608001 -0.33961293 0.655432 0.25560138 -0.6974374 -0.4784971 0.9461655 -0.59067136
0.30787626 0.32744712 0.83299285 -0.07233238 -0.18119505 -0.44834012 0.6261654 0.39727235
-1.2483338 -0.8526592 2.2344964 -1.3460526 0.22945455 -4.296059 0.922194 -0.77343124
0.90242183 -1.6041696 -2.1430147 1.2285566 0.3492172 2.1131828 -3.30068 0.40249595
0.9981475 -2.0689924 -1.8026135 2.133111 0.3354837 -0.4161391 -3.0244539 0.54242945
1.4908388 0.23433286 -1.691082 3.4579008 0.27383414 1.9472787 -0.1965646 -0.6709279
-1.2483519 -0.85318893 2.2330894 -1.345587 0.22923882 -4.296932 0.9227681 -0.77266437
0.9018651 -1.6030453 -2.1422834 1.2278782 0.348425 2.1137166 -3.2977467 0.40303826
0.99856764 -2.0691345 -1.8036942 2.1330488 0.33552617 -0.4175502 -3.0235214 0.5427111
1.493381 0.23729177 -1.6921355 3.4589028 0.27338782 1.9460627 -0.19648924 -0.67244846

bias f4 [10]
00000000: 3653 78c0 4061 78c0 0960 78c0 0445 f43e
00000010: 725e 78c0 36d9 953e a65c 78c0 0a65 78c0
00000020: 4058 78c0 aa8d 78c0
-3.8800788 -3.8809357 -3.8808615 0.47708905 -3.8807645 0.2926728 -3.8806548 -3.881167
-3.8803864 -3.8836465

weight f4 [1, 32]
00000000: 9007 113e cf6a a43c 857b 99bd 7dd8 e9bd
00000010: 1cd4 473b b2a4 bc3e 40ef 0a3d 05ca 373d
00000020: dc0e 763e 81dc 913d 5123 7d3e bd3e 613e
00000030: 3103 afbd 48a6 98bd e2b7 bb3d e02a 5cbe
00000040: a812 5d3e 3ad6 313d b8eb 913e d96c 02bf
00000050: 3120 fd3d eee1 1ebd 6cee 17be 81e6 a03d
00000060: dc55 2f3e 3969 1d3e fa58 0d3e 1ea3 12be
00000070: 35f5 0a3e 3303 233e 41d6 d03d 23dd 10bd
0.14163041 0.020070462 -0.074942626 -0.11418245 0.0030491417 0.36844403 0.033919573 0.044870395
0.24029106 0.07122136 0.24720503 0.21996589 -0.085455306 -0.07453591 0.09165932 -0.2150073
0.21589148 0.043417193 0.28500152 -0.5094734 0.12359656 -0.038789682 -0.14837044 0.07856465
0.17122597 0.1537217 0.13803473 -0.14320037 0.13570102 0.15919189 0.10197116 -0.035367142

logits f4 [32, 10]
00000000: 6a41 d1c1 c846 d1c1 ee42 d1c1 64cf c8c0
00000010: 7245 d1c1 00f0 f6ba 2247 d1c1 4249 d1c1
00000020: 6046 d1c1 0247 d1c1 8993 07c2 8e91 07c2
00000030: ee92 07c2 0000 54b9 8893 07c2 5f18 08c1
00000040: aa91 07c2 ea94 07c2 3a96 07c2 b693 07c2
00000050: eb04 0fc2 66ff 0ec2 b501 0fc2 0000 40b7
00000060: 9704 0fc2 21e6 35c1 a2fe 0ec2 8404 0fc2
00000070: a8ff 0ec2 3dfa 0ec2 776b e4c1 a070 e4c1
00000080: 9764 e4c1 f652 06c1 ee77 e4c1 0000 6db9
00000090: 7072 e4c1 c369 e4c1 8776 e4c1 1160 e4c1
000000a0: 3ad6 0dc2 bfd4 0dc2 c1d8 0dc2 2888 35c1
000000b0: 6edd 0dc2 0000 40b7 f8de 0dc2 04d9 0dc2
000000c0: 26d9 0dc2 fad5 0dc2 3182 1dc2 c082 1dc2
000000d0: 1186 1dc2 d938 89c1 de88 1dc2 0000 0000
000000e0: 788a 1dc2 d081 1dc2 d08c 1dc2 1e79 1dc2
000000f0: 92cf 09c2 8ad2 09c2 b6d4 09c2 0000 6eb8
00000100: f1ce 09c2 2c6d 1cc1 33d0 09c2 7ccf 09c2
00000110: f5d9 09c2 d4d2 09c2 9596 e7c1 e79e e7c1
00000120: 879d e7c1 6270 05c0 f99c e7c1 80ed 07be
00000130: c69a e7c1 ad97 e7c1 7aaa e7c1 ba98 e7c1
00000140: d767 dac1 566f dac1 bf74 dac1 5a5e 26c0
00000150: 196f dac1 6023 9ebd 716f dac1 5668 dac1
00000160: 2083 dac1 8672 dac1 3717 18c2 2118 18c2
00000170: d819 18c2 00c0 10ba f116 18c2 2010 f0c0
00000180: df16 18c2 8f19 18c2 b61b 18c2 501a 18c2
00000190: 2a8c adc1 3695 adc1 3990 adc1 00f0 95ba
000001a0: df86 adc1 1cc3 d8c0 078d adc1 168b adc1
000001b0: 5f94 adc1 ea99 adc1 a8d5 fcc1 54d4 fcc1
000001c0: fad5 fcc1 0000 b8b7 28d5 fcc1 3cde 2bc1
000001d0: 16d1 fcc1 bad4 fcc1 9ae0 fcc1 6ad8 fcc1
000001e0: 100f d1c1 f816 d1c1 220f d1c1 1b23 0bc1
000001f0: 941e d1c1 0080 2fb9 d015 d1c1 9819 d1c1
00000200: 4c1c d1c1 381c d1c1 30be cdc1 56c3 cdc1
00000210: e2b7 cdc1 00a0 93ba b8c0 cdc1 cc41 d9c0
00000220: b0bc cdc1 9abd cdc1 16c2 cdc1 38b3 cdc1
00000230: d616 d8c1 db0d d8c1 8d11 d8c1 0000 97b9
00000240: a511 d8c1 066e 02c1 6f13 d8c1 4415 d8c1
00000250: 6217 d8c1 1117 d8c1 5f56 f5c1 aa64 f5c1
00000260: 5a61 f5c1 0020 5cba 9e58 f5c1 eea7 e2c0
00000270: b35b f5c1 0558 f5c1 2d70 f5c1 0e6a f5c1
00000280: 40a6 1bc2 c6a6 1bc2 40aa 1bc2 a058 85c1
00000290: c2ac 1bc2 0000 0000 48ae 1bc2 faa5 1bc2
000002a0: d4b0 1bc2 629d 1bc2 6457 c2c1 1a51 c2c1
000002b0: a256 c2c1 bb08 8ac0 bc4e c2c1 00cb 5cbc
000002c0: 204f c2c1 5c52 c2c1 6e5b c2c1 4858 c2c1
000002d0: 8c1c c8c1 3814 c8c1 ee17 c8c1 0000 18b7
000002e0: 461f c8c1 527e 39c1 1617 c8c1 501c c8c1
000002f0: da21 c8c1 3413 c8c1 95c7 e7c1 a8d0 e7c1
00000300: 0acd e7c1 0000 bfb8 8dd0 e7c1 d8df 14c1
00000310: 3ccd e7c1 3ac9 e7c1 ffd6 e7c1 efce e7c1
00000320: 464b 10c2 8045 10c2 4848 10c2 0000 70b7
00000330: 3c4b 10c2 ee06 32c1 2645 10c2 684b 10c2
00000340: ea45 10c2 ea40 10c2 55bc edc1 b8c4 edc1
00000350: 17c0 edc1 e360 f7c0 9eb4 edc1 0040 e6b9
00000360: 42c1 edc1 15b9 edc1 9bc0 edc1 d9b9 edc1
00000370: ccb5 1ac2 e6b5 1ac2 d5b9 1ac2 3c5d 89c1
00000380: 16bd 1ac2 0000 0000 26be 1ac2 4eb5 1ac2
00000390: 99c0 1ac2 50ac 1ac2 1fd3 fcc1 9cd6 fcc1
000003a0: f0d9 fcc1 7076 bdc0 11e7 fcc1 0018 30bb
000003b0: b5e5 fcc1 b4da fcc1 86df fcc1 b3de fcc1
000003c0: e338 04c2 323d 04c2 b73a 04c2 8091 3dbd
000003d0: c936 04c2 0026 46c0 5b39 04c2 2235 04c2
000003e0: 2840 04c2 5f2d 04c2 77e5 c2c1 83dc c2c1
000003f0: 64d4 c2c1 0068 4cbb 19d9 c2c1 7db2 b8c0
-26.15694 -26.159561 -26.15768 -6.275316 -26.158909 -0.0018839836 -26.159733 -26.16077
-26.159363 -26.159672 -33.894077 -33.892143 -33.893486 -0.00020217896 -33.894073 -8.50595
-33.89225 -33.895424 -33.896706 -33.89425 -35.754803 -35.749413 -35.751667 -1.1444092e-05
-35.754482 -11.368684 -35.748665 -35.75441 -35.749664 -35.744373 -28.552473 -28.554993
-28.549116 -8.395254 -28.55856 -0.00022602081 -28.555878 -28.551641 -28.557875 -28.546907
-35.459206 -35.45776 -35.461674 -11.345741 -35.46624 -1.1444092e-05 -35.467743 -35.46193
-35.46206 -35.45896 -39.37714 -39.377686 -39.380924 -17.152758 -39.38366 0.0
-39.385223 -39.37677 -39.387512 -39.36828 -34.452705 -34.455605 -34.457726 -5.6743622e-05
-34.45209 -9.776653 -34.45332 -34.45262 -34.46285 -34.455887 -28.948526 -28.952589
-28.951918 -2.0849843 -28.951647 -0.13274193 -28.950573 -28.94906 -28.95824 -28.949574
-27.300703 -27.304363 -27.307005 -2.5995088 -27.304247 -0.07721591 -27.304415 -27.300945
-27.314026 -27.30592 -38.02267 -38.023563 -38.025238 -0.00055217743 -38.022404 -7.5019684
-38.022335 -38.02496 -38.02706 -38.025696 -21.69344 -21.697857 -21.695421 -0.0011439323
-21.690855 -6.773817 -21.693861 -21.692913 -21.697447 -21.700153 -31.604324 -31.603676
-31.60448 -2.193451e-05 -31.60408 -10.741756 -31.602093 -31.60387 -31.609669 -31.60567
-26.132355 -26.136215 -26.13239 -8.696071 -26.13993 -0.00016736984 -26.13565 -26.137497
-26.138817 -26.138779 -25.717865 -25.720379 -25.714787 -0.0011262894 -25.7191 -6.789282
-25.717133 -25.717579 -25.719769 -25.71251 -27.01115 -27.006765 -27.00857 -0.00028800964
-27.008615 -8.151861 -27.00949 -27.010384 -27.011417 -27.011263 -30.667173 -30.674152
-30.672535 -0.00083971024 -30.66827 -7.082999 -30.669775 -30.667978 -30.679773 -30.676785
-38.912354 -38.912865 -38.91626 -16.668274 -38.91871 0.0 -38.920197 -38.912086
-38.922684 -38.903694 -24.292671 -24.2896 -24.292301 -4.3135657 -24.288445 -0.013476133
-24.288635 -24.290215 -24.294643 -24.293106 -25.013939 -25.009872 -25.011684 -9.059906e-06
-25.01527 -11.59334 -25.011272 -25.013824 -25.01653 -25.009377 -28.972452 -28.976883
-28.975117 -9.10759e-05 -28.976831 -9.304649 -28.975212 -28.973255 -28.979979 -28.976042
-36.07351 -36.06787 -36.070587 -1.4305115e-05 -36.07347 -11.126692 -36.067528 -36.07364
-36.068275 -36.063393 -29.716959 -29.721054 -29.718794 -7.730577 -29.713192 -0.00043916702
-29.719364 -29.715372 -29.719046 -29.715746 -38.677536 -38.677635 -38.681477 -17.170525
-38.684654 0.0 -38.68569 -38.677055 -38.688084 -38.668274 -31.603086 -31.60479
-31.606415 -5.9207077 -31.612825 -0.0026869774 -31.612162 -31.606789 -31.609142 -31.60874
-33.055553 -33.05976 -33.05734 -0.046281338 -33.0535 -3.0960693 -33.05601 -33.051888
-33.062653 -33.044308 -24.362043 -24.357672 -24.353706 -0.0031189919 -24.356005 -5.771788

probs f4 [32, 10]
00000000: a1a6 992c af3f 992c 8889 992c 02b4 f63a
00000010: 4959 992c a684 7f3f f238 992c 4510 992c
00000020: 7747 992c 573b 992c ad4c 0927 b890 0927
00000030: 7761 0927 bff2 7f3f cf4c 0927 1b16 5439
00000040: f68c 0927 601d 0927 6af0 0827 a446 0927
00000050: c0dd aa25 2aca ab25 2067 ab25 3eff 7f3f
00000060: c4eb aa25 e0cd 4137 0eeb ab25 f0ee aa25
00000070: 17bf ab25 56a8 ac25 6005 e02a f374 df2a
00000080: 38c6 e02a 85e9 6c39 47a9 de2a 31f1 7f3f
00000090: 5842 df2a 1635 e02a 6ed0 de2a 7345 e12a
000000a0: c5a1 e525 d3f6 e525 dc10 e525 4b4d 4637
000000b0: b505 e425 3aff 7f3f 09ae e325 e001 e525
000000c0: 45fa e425 20b0 e525 2919 1223 c304 1223
000000d0: e58b 1123 c29e 1833 1f26 1123 0000 803f
000000e0: 0dec 1023 0027 1223 3c97 1023 1066 1323
000000f0: a211 9d26 3a9d 9c26 4848 9c26 48fc 7f3f
00000100: 562a 9d26 2a13 6e38 f1f8 9c26 0215 9d26
00000110: d67b 9b26 e991 9c26 6ac2 962a ef25 962a
00000120: c03f 962a c095 fe3d 2b4a 962a 482d 603f
00000130: 8273 962a cead 962a 514d 952a 049a 962a
00000140: d0d2 c32b a91b c32b e397 c22b e12f 983d
00000150: 7921 c32b 04fa 6c3f 1619 c32b acc6 c32b
00000160: 5c3b c12b fccd c22b a585 0d24 5165 0d24
00000170: c028 0d24 d3db 7f3f 518f 0d24 e0b3 103a
00000180: ce91 0d24 d032 0d24 eae6 0c24 3618 0d24
00000190: f45d d02f d772 cf2f 59f4 cf2f 12b5 7f3f
000001a0: fee7 d02f 86db 953a 7947 d02f 0b7a d02f
000001b0: a088 cf2f 06f9 ce2f b66f a928 da8b a928
000001c0: ee68 a928 96fe 7f3f 4e7a a928 e662 b537
000001d0: 9fd0 a928 6883 a928 8488 a828 5935 a928
000001e0: b179 9d2c 5cde 9c2c 4f78 9d2c 945d 2f39
000001f0: 6e49 9c2c 0af5 7f3f 0af5 9c2c ebaa 9c2c
00000200: 0576 9c2c 8d77 9c2c a25a ee2c 6ec1 ed2c
00000210: c416 ef2c 39b6 7f3f 430f ee2c cd8e 933a
00000220: 5787 ee2c 176c ee2c 98e6 ed2c 51a2 ef2c
00000230: 23cb 022c 485e 032c a821 032c 1ded 7f3f
00000240: 1f20 032c 5519 9739 cf02 032c d1e4 022c
00000250: 32c2 022c 5ec7 022c 7742 5829 70c1 5629
00000260: 6d1a 5729 00c9 7f3f c805 5829 4601 5c3a
00000270: 9fb2 5729 eb15 5829 478d 5529 eb30 5629
00000280: 778a 6823 0b6c 6823 61a2 6723 ffc0 7733
00000290: 5511 6723 0000 803f 65b9 6623 5d9a 6823
000002a0: ab26 6623 3390 6a23 03cf f72d 2092 f82d
000002b0: 7ee6 f72d d34f 5b3c b8db f82d c192 7c3f
000002c0: 91cf f82d 0d6b f82d 0652 f72d 6eb3 f72d
000002d0: fdef 702d 52eb 712d 347b 712d 66ff 7f3f
000002e0: ed9d 702d 22cf 1a37 ae94 712d 0df7 702d
000002f0: 6f50 702d 0a0a 722d ff31 932a 688b 922a
00000300: bacd 922a 0afa 7f3f 568d 922a 5dd7 be38
00000310: 24ca 922a c013 932a 7417 922a faaa 922a
00000320: 5378 7825 f9df 7925 7832 7925 0aff 7f3f
00000330: c17a 7825 59dd 7637 f0f5 7925 1370 7825
00000340: 1cc6 7925 17ff 7a25 7ad3 0b2a 3141 0b2a
00000350: dc91 0b2a 2943 e639 935a 0c2a 37e3 7f3f
00000360: 7d7d 0b2a 540c 0c2a dd88 0b2a edfe 0b2a
00000370: 6f0b 9323 b307 9323 6477 9223 b8ee 1533
00000380: 6e00 9223 0000 803f abd9 9123 881d 9323
00000390: 7880 9123 b669 9423 69a5 a928 7f5b a928
000003a0: 1a15 a928 50da 2f3b 8000 a828 2550 7f3f
000003b0: 0f1d a828 eb04 a928 339f a828 93b0 a828
000003c0: 84c8 9e27 d71d 9e27 0380 9e27 076c 743f
000003d0: 061c 9f27 8e3f 393d e9b5 9e27 cd5d 9f27
000003e0: f7a8 9d27 3794 a027 4e33 e72d 9e36 e82d
000003f0: d022 e92d e933 7f3f cc99 e82d 5617 4c3b
4.367021e-12 4.355592e-12 4.3637906e-12 0.0018821957 4.358434e-12 0.9981178 4.3548437e-12 4.350328e-12
4.3564557e-12 4.3551096e-12 1.9054135e-15 1.9091021e-15 1.9065405e-15 0.99979776 1.9054207e-15 0.0002022613
1.9088984e-15 1.9028494e-15 1.900412e-15 1.9050864e-15 2.9640563e-16 2.9800763e-16 2.9733652e-16 0.99998844
2.965006e-16 1.155163e-05 2.982305e-16 2.965221e-16 2.979326e-16 2.9951313e-16 3.9794123e-13 3.9693907e-13
3.9927935e-13 0.00022593707 3.9552582e-13 0.99977404 3.9658793e-13 3.982723e-13 3.957975e-13 4.001622e-13
3.9834787e-16 3.9892422e-16 3.9736592e-16 1.1819716e-05 3.9555562e-16 0.9999882 3.9496154e-16 3.9726438e-16
3.9721284e-16 3.9844515e-16 7.920004e-18 7.915684e-18 7.8900896e-18 3.5534647e-08 7.868538e-18 1.0
7.856241e-18 7.9229344e-18 7.838281e-18 7.9904985e-18 1.0898843e-15 1.0867291e-15 1.0844266e-15 0.99994326
1.0905539e-15 5.676147e-05 1.089215e-15 1.0899758e-15 1.0788851e-15 1.0864224e-15 2.6780254e-13 2.6671674e-13
2.6689588e-13 0.12430906 2.6696817e-13 0.87569094 2.6725502e-13 2.6765954e-13 2.6521366e-13 2.6752222e-13
1.3914096e-12 1.3863261e-12 1.3826686e-12 0.07431007 1.3864874e-12 0.92568994 1.3862546e-12 1.3910726e-12
1.372995e-12 1.3841701e-12 3.0687703e-17 3.066032e-17 3.0609018e-17 0.999448 3.0695895e-17 0.00055199675
3.0698003e-17 3.061754e-17 3.0553253e-17 3.059501e-17 3.7901737e-10 3.773468e-10 3.78267e-10 0.99885666
3.799982e-10 0.0011433221 3.7885764e-10 3.7921696e-10 3.7750159e-10 3.7648124e-10 1.8811216e-14 1.882342e-14
1.8808275e-14 0.9999784 1.881581e-14 2.1622935e-05 1.8853244e-14 1.8819757e-14 1.8710951e-14 1.8785905e-14
4.475719e-12 4.4584735e-12 4.4755653e-12 0.00016724161 4.441939e-12 0.99983275 4.4609915e-12 4.4527624e-12
4.4468895e-12 4.4470595e-12 6.774429e-12 6.75742e-12 6.795316e-12 0.99887425 6.7660612e-12 0.0011257768
6.7793926e-12 6.7763672e-12 6.761546e-12 6.8108093e-12 1.8586875e-12 1.8668556e-12 1.8634903e-12 0.9997118
1.863405e-12 0.00028819838 1.8617779e-12 1.860113e-12 1.8581911e-12 1.8584782e-12 4.8019284e-14 4.7685326e-14
4.776251e-14 0.99916077 4.796665e-14 0.0008392524 4.789452e-14 4.7980645e-14 4.741804e-14 4.7559975e-14
1.2606066e-17 1.2599624e-17 1.255692e-17 5.7684698e-08 1.2526205e-17 1.0 1.2507584e-17 1.2609433e-17
1.2476513e-17 1.2715701e-17 2.817258e-11 2.8259228e-11 2.8183008e-11 0.013385731 2.829191e-11 0.9866143
2.8286514e-11 2.8241876e-11 2.8117075e-11 2.8160332e-11 1.3695709e-11 1.37515156e-11 1.37266205e-11 0.9999908
1.3677487e-11 9.227342e-06 1.37322775e-11 1.3697277e-11 1.366028e-11 1.37583365e-11 2.6147137e-13 2.6031542e-13
2.607756e-13 0.99990904 2.6032881e-13 9.1000205e-05 2.6075073e-13 2.612615e-13 2.5951084e-13 2.605345e-13
2.1551339e-16 2.1673192e-16 2.1614407e-16 0.99998534 2.1552162e-16 1.4714279e-05 2.1680634e-16 2.1548543e-16
2.166443e-16 2.1770471e-16 1.2419051e-13 1.2368298e-13 1.2396285e-13 0.00043919057 1.2465922e-13 0.9995608
1.2389218e-13 1.2438775e-13 1.2393164e-13 1.2434125e-13 1.5942614e-17 1.5941033e-17 1.5879916e-17 3.490888e-08
1.5829534e-17 1.0 1.5813117e-17 1.5950279e-17 1.577534e-17 1.6090962e-17 1.8834504e-14 1.880245e-14
1.877192e-14 0.0026833005 1.8651964e-14 0.99731666 1.8664349e-14 1.8764902e-14 1.8720788e-14 1.8728324e-14
4.407121e-15 4.388616e-15 4.39926e-15 0.95477337 4.416175e-15 0.045226626 4.4051037e-15 4.4233064e-15
4.3759446e-15 4.4569616e-15 2.6284443e-11 2.6399601e-11 2.6504493e-11 0.99688584 2.6443646e-11 0.003114184
