LibraForWebRTC/rl_script/loki/models/gcc_module_3.pt (torch, 16775 bytes, 9 tensors)

weight f4 [32, 10]
000000 5f 4b d3 be bb ad 9f 3e cb 51 0f 3e 9c 30 d3 bd
       -0.4126844 0.31187233 0.13996045 -0.10312006
000010 e5 d6 8a 3e cc 12 3e 3e d6 fc 92 3e a2 a4 aa bd
       0.27117077 0.18561858 0.28708524 -0.083321825
000020 d2 81 9b bd 94 f3 bc be 6c 59 42 be ab 27 2d 3f
       -0.07593121 -0.36904585 -0.18979424 0.67638654
000030 09 5b 6d bd 85 2c 59 bf c5 09 f4 be 6c ae ab be
       -0.057948146 -0.84833556 -0.47663704 -0.3353151
000040 6a 50 87 bd 89 13 84 bb 81 d1 6d bf ed 04 29 3e
       -0.06607135 -0.004030649 -0.928978 0.16505785
000050 4a 17 1c 3e 83 df a4 3e 10 63 d3 3d 41 e2 c9 3e
       0.15243259 0.32201776 0.10321629 0.3943043
000060 7b 92 23 be 98 0e a2 bc 83 44 2a 3d 44 9c 88 be
       -0.15973847 -0.01978235 0.041569244 -0.2668172
000070 01 5b 76 3e 4d 64 b4 be 90 57 82 3d 03 af 2b be
       0.24058153 -0.35232773 0.063643575 -0.1676598
000080 6a ed 86 be 3e a4 61 3e 20 b5 22 bf 2f d3 28 be
       -0.26353008 0.2203531 -0.63557625 -0.1648681
000090 6e 82 80 bf 6a 22 76 3e c8 1a 7a bf 50 de c7 be
       -1.0039804 0.24036565 -0.97697115 -0.39036798
0000a0 5b f7 a9 3d bb 28 fc 3c a7 9b 50 bd 7e 8d 83 3d
       0.082991324 0.03078114 -0.05092969 0.06423472
0000b0 fe 01 2e 3f 08 8f a7 be d2 08 d6 3e 19 0a c6 3e
       0.6797179 -0.32726312 0.41803604 0.3867958
0000c0 c8 c3 13 3f 11 f0 a9 3b f3 75 2c 3f 07 bd 04 bf
       0.57720613 0.005186089 0.67367476 -0.5185093
0000d0 ca 06 17 3f 1a 6f b2 be 2b a1 61 3e 9e 4e 83 3e
       0.58994734 -0.3485039 0.22034137 0.25645918
0000e0 ba 18 13 3f c0 ff 3e 3e f0 9e f6 3e 2b e9 bd be
       0.57459605 0.18652248 0.48168135 -0.37091956
0000f0 62 30 fe bd 65 b6 d9 3d 82 b3 16 bf 52 ff d1 3d
       -0.12411572 0.10630492 -0.5886766 0.102537766
000100 66 0d 5b bd 31 86 43 bd e1 02 ed 3e 22 52 ac 3c
       -0.053479575 -0.047735397 0.4629126 0.021035258
000110 f6 b7 f1 3e 27 32 90 3d a1 68 6b 3e c1 00 6c bd
       0.47210664 0.07040816 0.22989132 -0.057617906
000120 6b 9c a0 3e bc 82 07 bf a5 bd 0f 3f c9 96 6f bf
       0.31369337 -0.5293386 0.5614875 -0.93589455
000130 97 80 39 3e b5 8f c4 3c b7 dc 0e 3e 68 a3 90 be
       0.1811546 0.023994306 0.13951384 -0.2824967
000140 b1 99 9e be e0 14 07 bf 01 9e 9a 3e 11 55 f3 3e
       -0.30976632 -0.5276623 0.30198672 0.47525838
000150 7f 09 d5 be 21 5e 21 3f 35 49 24 bf fd 56 29 3e
       -0.41608807 0.63034254 -0.64174205 0.1653709
000160 9d 03 b2 be e3 26 6e be 0d 5b a7 be c7 0f 21 bf
       -0.34768382 -0.23257022 -0.32686654 -0.629147
000170 b9 fb c1 3e b4 ff 91 3d 86 77 52 bd 27 e7 a2 be
       0.37887362 0.071288496 -0.051383518 -0.3181698
000180 73 24 63 be c7 0f f4 be ed 25 a6 be 17 5d 09 3a
       -0.22181873 -0.47668287 -0.3245081 0.0005240007
000190 cb 44 28 3f f5 10 e0 3e 7b a0 58 3f 77 80 aa 3d
       0.6572997 0.43762937 0.84619874 0.08325284
0001a0 fb 44 43 bf 11 ad ce bd 66 7c 33 bf b7 70 a5 3e
       -0.7627713 -0.100916035 -0.7011169 0.32312557
0001b0 89 07 45 bf 4c 48 11 bf 82 c8 23 be 88 f8 db bd
       -0.7696462 -0.5675094 -0.15994456 -0.10740763
0001c0 6f fc 8c 3d c7 a6 df bd 2b 7e 33 3f 0d be b5 3e
       0.068840854 -0.10920482 0.7011439 0.3549656
0001d0 06 3b b8 3e af a7 09 3e 8e b8 30 bd 69 d6 82 3f
       0.3598253 0.13442872 -0.043144755 1.0221683
0001e0 cc 3d f8 3c 31 c4 b2 bd c0 23 93 bd b4 03 29 be
       0.030302905 -0.08728827 -0.07184553 -0.16505319
0001f0 98 01 09 3f ae 08 f6 3d f1 b5 f6 3e 1f 17 09 3d
       0.53518057 0.12013374 0.48185685 0.033469316
000200 41 ce 98 3e 59 0f c5 3e 7c 29 04 bf df 28 80 be
       0.2984486 0.38488272 -0.516258 -0.25031182
000210 71 1a 03 be 60 f6 3a 3e 69 52 c6 be 5a 58 99 bd
       -0.12803055 0.18258047 -0.3873475 -0.07487555
000220 29 66 6d bf 2b 23 38 3e 48 71 21 bf 03 13 82 be
       -0.9273401 0.17982166 -0.6306348 -0.2540513
000230 a1 8c 3c bf cb 4e b3 bc 2d 8c a4 bf 62 7e 5b 3c
       -0.7365208 -0.021888157 -1.2855278 0.013396831
000240 0e dd 9b bf 06 ac f8 bc 0f f6 3e bf 45 f7 db be
       -1.2176836 -0.030355465 -0.74594206 -0.4296209
000250 51 cc 57 bf 05 6f 11 3e 79 6e 23 be 3f 2b cb bc
       -0.8429614 0.14202507 -0.1596011 -0.024800895
000260 57 ef 9c 3e 14 26 06 3e 8f 9c 4a 3e 53 2c 87 3e
       0.30651352 0.13100463 0.19786285 0.26401004
000270 92 b1 f2 3e c1 0d 9b be 3c d1 5e 3e 48 c1 a6 be
       0.474011 -0.3028393 0.21759504 -0.32569337
000280 a9 11 ff 3d 8e e3 50 3d 73 33 e7 be 1b 25 58 be
       0.1245454 0.050998263 -0.4515644 -0.21107905
000290 60 1c f8 bd 2c 20 fe bd 79 8a 7c 3d a1 37 0c 3c
       -0.12114787 -0.1240848 0.061655495 0.008558185
0002a0 fd 2d b8 be 75 bb 04 be 29 42 0e 3e 9b bf 81 be
       -0.35972586 -0.12962134 0.13892426 -0.25341496
0002b0 a6 9b f3 be 7c 59 dd bc 1b ce 93 be 21 02 ca 3d
       -0.47579688 -0.027020209 -0.28868183 0.09863687
0002c0 6b ba e0 bd 4d 8d da be c2 38 f7 3e d5 db 05 be
       -0.109730564 -0.4268593 0.4828549 -0.1307214
0002d0 9b f5 93 bd ef 0b 2f bc d6 89 da 3c f5 3b a8 bd
       -0.0722458 -0.0106839975 0.026677053 -0.08214561
0002e0 5b 27 c1 bc 0d 25 01 bf e7 eb ed be 5d 9c 02 3d
       -0.023578336 -0.5044716 -0.46469042 0.0318874
0002f0 e5 f3 7e be 11 a3 d9 3d 4e ce 92 be 52 94 11 bf
       -0.24897726 0.106268056 -0.28673023 -0.56866944
000300 5e 5e e7 3d a4 8c 89 3e a1 65 57 3e 68 43 dd bd
       0.11297296 0.26865113 0.21034862 -0.10803872
000310 85 15 f2 3e 4d fc eb 3d 98 42 b0 3e b1 bd ec bc
       0.47282043 0.11522732 0.34425807 -0.028899046
000320 e8 0c 64 bf 5b 4d fc be 7b 99 44 bf c2 81 c8 3e
       -0.89082193 -0.49277768 -0.7679669 0.39161497
000330 a3 c6 a7 3d 81 81 86 bd b7 98 23 3f d6 8a ff bd
       0.08192184 -0.0656767 0.639049 -0.12477653
000340 13 0d d7 3e 9e a9 bc 3e 5e 40 48 3d e0 62 68 3e
       0.42002162 0.36848158 0.04888951 0.22693968
000350 ee 64 97 3e f3 9a f0 3e c0 a6 11 3f 19 f4 d5 be
       0.2956919 0.46993217 0.56895065 -0.41787794
000360 e2 53 7f 3e a7 c9 5e bf de 5c 6c 3e da 08 22 3e
       0.24934343 -0.8702645 0.23082301 0.15823689
000370 4f 82 1e 3e 7a 34 ec be 47 00 73 3d 80 65 08 3e
       0.15479396 -0.46133786 0.059326436 0.13319969
000380 b5 41 c0 bd 2c b6 8b be e7 ee 5c be 55 bf e7 be
       -0.093875326 -0.27287424 -0.21575509 -0.45263162
000390 08 de ea be 03 76 10 3f 6d a0 82 3e dc de fb 3e
       -0.4587252 0.5643007 0.2551302 0.49193466
0003a0 99 70 80 3e 88 a0 4d bd fe a9 0f 3e 39 a6 f6 3d
       0.25085905 -0.050201923 0.1402969 0.12043423
0003b0 61 12 09 bd 7c 2b 7b 3d 25 f4 ec 3e ca 8f 46 be
       -0.033464793 0.061320767 0.46280017 -0.19390789
0003c0 c4 4c 33 3e 4e d2 8a bd ad 2a 1f bf bd ef 22 3e
       0.17509753 -0.06778394 -0.62174493 0.15911765
0003d0 8a ba db be 24 f7 4a be 76 8d 7e bf fc 69 cb 3d
       -0.42915756 -0.19820839 -0.994346 0.09932324
0003e0 30 a2 25 bf ae 7b 86 be 6d 8d 94 be 56 f0 5f bb
       -0.64700603 -0.26266235 -0.2901415 -0.003417035
0003f0 4a 9c 90 be b2 38 8d 3f bd 76 25 3e 79 50 99 be
       -0.2824424 1.1032927 0.16158576 -0.29944208

bias f4 [32]
000000 56 d8 b0 3e 68 81 ab be b4 37 1a 3f 84 61 90 3f
       0.3454005 -0.33497167 0.60241246 1.127976
000010 9b 3c 4f bf 13 87 09 bf 67 8f 61 bf e2 b9 19 bf
       -0.8095185 -0.5372173 -0.8810944 -0.6004926
000020 92 97 97 3e f3 f5 de 3e 2a 59 89 3e 52 a1 bc be
       0.29607826 0.4354702 0.2682584 -0.36841828
000030 c6 90 9c be e3 34 65 3f c7 45 22 3f bd 60 1e c0
       -0.30579203 0.89533824 0.6338772 -2.4746544
000040 28 b5 62 3f 24 ce c5 bf 77 0a 2e 3f 5f 90 93 bf
       0.8855767 -1.5453534 0.6798472 -1.1528434
000050 f2 27 ea be a3 5f 57 bf 1c df ea 3e 84 53 4a 3e
       -0.457336 -0.84130305 0.45873344 0.19758421
000060 d1 42 96 3f 17 1d dc bc 5a a6 da 3f fa 3b 6b 3f
       1.1739141 -0.02686934 1.7082016 0.9188839
000070 1e c7 d6 bf cf cb 8f 3f e5 69 67 bf f5 40 1b 3f
       -1.6779516 1.1234072 -0.9039596 0.6064599

weight f4 [32, 32]
000000 4f 3f bd 3d ec fe 30 3f 04 88 c2 3e b4 4c 77 be
       0.09240591 0.6913898 0.37994397 -0.24150354
000010 1a a8 f2 3e e0 fc 16 3f 71 79 5d 3e f1 1d fc 3d
       0.47393876 0.58979607 0.21628357 0.12310398
000020 62 94 3e 3e 62 24 81 bd 46 8b 57 3d c4 bc 32 be
       0.18611291 -0.063057676 0.052623056 -0.17454821
000030 cb 64 a6 bc dd 91 0a be 92 2d 3f bf 70 70 94 3e
       -0.020311734 -0.13532205 -0.7467891 0.28992033
000040 93 9d 10 bf 19 47 b0 3e 17 d6 95 be ef 51 1a 3e
       -0.5649044 0.34429243 -0.292649 0.15070318
000050 ca af 1d 3f 1d 2b 33 3e 1c 24 ae be 29 6e d2 be
       0.6159636 0.17496915 -0.34011924 -0.4109967
000060 cd 5f 5d 3d 0c bb 3a bf 76 57 1a 3e 3c e6 15 be
       0.05404644 -0.7294166 0.15072426 -0.14638609
000070 ed fa 33 bb 4b c8 31 3f da 5f 0c bd 92 62 e6 bb
       -0.0027462796 0.6944625 -0.0342711 -0.0070307935
000080 bd 30 bb 3d 96 49 df bd 44 ee d9 bd a5 f3 24 bf
       0.091401555 -0.10902707 -0.10641149 -0.6443427
000090 84 a7 8a 3f 9e 14 d3 3e 3a 41 dd 3e ae b2 be 3e
       1.0832372 0.41226667 0.43213826 0.37245697
0000a0 05 23 1f bd a3 58 44 be a6 2f b7 3e 59 50 07 3c
       -0.038851757 -0.19174437 0.3577854 0.0082589025
0000b0 96 85 67 3e e9 e5 dd bd 79 e9 21 bf 8c bc b5 3e
       0.22609553 -0.108348675 -0.63246876 0.35495412
0000c0 81 a9 af be a1 af c0 3e ec 8f 21 bf 64 08 b7 3b
       -0.3430901 0.37633994 -0.6311023 0.005585717
0000d0 a3 e5 d0 3e 11 f2 93 bd e6 b1 a0 be 95 ad b3 be
       0.408002 -0.07223905 -0.31385726 -0.3509337
0000e0 e2 e9 01 bf ec a3 2a 3f 2d ba 23 be 49 69 84 3d
       -0.507475 0.66656375 -0.15988989 0.06465394
0000f0 fd 3f 92 be 3d f7 8f bd 61 80 44 3e b2 0e 2b be
       -0.28564444 -0.07029579 0.19189598 -0.16704825
000100 8e 15 20 3e 4c 5e 41 bf b8 44 9c be e6 23 52 3e
       0.15633222 -0.7553451 -0.30521178 0.20521507
000110 ed 4b 98 be 25 1d 94 bf e2 b9 fe 3e d0 2f 8d 3e
       -0.29745427 -1.1571394 0.49751192 0.2757554
000120 3b 3c 51 be 59 10 0e 3f 48 af 0b 3d 98 e1 86 be
       -0.20433132 0.55493695 0.034102708 -0.2634399
000130 81 09 a8 3d f0 05 68 bf 3a 23 16 3f dd 54 78 3e
       0.08204938 -0.9063406 0.586475 0.24251123
000140 9a 2f 9f bd 43 5f e4 be b1 79 5b 3d 8f 5f 79 3e
       -0.07772751 -0.4460393 0.05358285 0.24352859
000150 5a 38 33 3d 8c b4 30 be 68 ce 83 be a2 18 0d 3f
       0.043754913 -0.17256373 -0.25743413 0.5511571
000160 dd a9 92 bd fd 25 f8 3e d3 1f 9f be 88 f0 f5 3d
       -0.07161305 0.48466483 -0.31078967 0.12008768
000170 12 cb 6b bd 47 15 e8 bd 51 b0 52 be 30 ed fd 3e
       -0.05756671 -0.11332183 -0.20575072 0.49595022
000180 9b 03 3f be e1 2d 41 3e 3b c7 3d 3f d0 53 8f 3f
       -0.18653719 0.18865158 0.74132127 1.1197453
000190 7d 47 c0 bf d6 fb a7 be ec b8 98 bf b9 d8 11 bf
       -1.5021816 -0.32809323 -1.1931434 -0.5697132
0001a0 80 4d 37 bc 68 61 58 3e df d3 78 bd 1b 64 06 3f
       -0.011187911 0.21130908 -0.06074893 0.524965
0001b0 2c 24 35 3e 09 0e a6 3e 4b b9 25 3d 43 f9 8c be
       0.1768958 0.32432583 0.040459912 -0.27533922
0001c0 62 99 20 3f 6b 2b 9b 3d 52 3e bd 3e 26 b2 da ba
       0.62734044 0.07576641 0.3696161 -0.0016685172
0001d0 49 46 5f be 0f 94 6a be 89 b2 20 bf eb a6 d2 3d
       -0.21804155 -0.22908042 -0.62772423 0.10285743
0001e0 8e b3 8c 3f 37 1b 4b be fb 12 97 3d 89 84 03 3c
       1.0992296 -0.198346 0.07376667 0.008027204
0001f0 47 33 d8 be d0 db 06 3f bc 09 3a bf 1f 21 97 3e
       -0.42226622 0.5267916 -0.72671103 0.29517457
000200 e2 36 b3 bc 05 4e 04 3e d3 2c e6 be 9e 55 9f 3e
       -0.021876756 0.12920387 -0.44956073 0.31120008
000210 23 97 b0 be 61 1b 54 bf e2 22 f7 be a0 cb 4c be
       -0.34490308 -0.82854277 -0.482688 -0.19999552
000220 2c 3a 95 be 57 06 46 3e 5d 31 4b 3e 19 61 95 be
       -0.29145944 0.19338356 0.1984305 -0.29175642
000230 5a d4 40 be 73 cf c7 bd e1 da 2d 3f 7e 79 22 bf
       -0.18831006 -0.09756365 0.6791211 -0.6346663
000240 13 2b 84 bc 5c 42 90 be 0b 16 a3 3e d6 71 00 bf
       -0.01613382 -0.28175628 0.31852755 -0.501737
000250 e0 15 f4 bd f1 14 5d bf 93 e7 81 bd 22 78 cd 3e
       -0.11918235 -0.8636008 -0.063429974 0.40130717
000260 62 40 ac 3e 2e d2 f8 3e 56 44 c5 3d f1 21 b1 3e
       0.3364287 0.48597854 0.09632175 0.34596208
000270 19 52 85 be 0e 9d 3d bf 77 f0 95 bd 80 46 3c 3e
       -0.26039198 -0.7406777 -0.07321256 0.18386269
000280 9f 10 d8 be 07 7d 01 bf 2d 5a 87 3d 07 62 a5 3e
       -0.4220018 -0.505814 0.066089965 0.3230135
000290 d1 df 67 bf 0e 6e 1c bf ca f6 98 3c aa ff 2e 3e
       -0.9057589 -0.6110543 0.018672366 0.17089716
0002a0 e4 26 bb 3e e6 a0 fe 3d 43 bf 73 3e a0 fc e6 bd
       0.3655311 0.12433033 0.2380343 -0.11278653
0002b0 80 0f 3a 3e 96 24 d7 3e 7e 3b 92 3e 46 96 2a bd
       0.18169975 0.420201 0.28561014 -0.04164722
0002c0 7f 92 d8 be cc 35 64 be 6f c3 30 bf f7 11 21 3e
       -0.42299268 -0.22286147 -0.6904821 0.1572951
0002d0 9d ef b7 3e 23 12 12 be 51 ba 18 3f 54 57 1d 3f
       0.35924998 -0.14264731 0.59659296 0.6146138
0002e0 e7 c9 d8 3e dc f2 be 3e d0 22 4a bf 91 5c 1a bf
       0.4234154 0.37294662 -0.7895937 -0.60297495
0002f0 b4 69 34 bd 2e 35 06 3f e9 0d 56 3d 41 50 e1 bd
       -0.04404612 0.52424896 0.05225936 -0.11001635
000300 04 a5 14 be 55 8d 7d be 57 c3 a4 bd 84 af d6 3e
       -0.14516073 -0.24760945 -0.080450706 0.41930783
000310 d7 9a 19 be 6f 54 ec be ad cd 32 3e 33 5e c2 3e
       -0.15000473 -0.46158168 0.17461272 0.37962493
000320 d0 21 28 3f 4b 21 3d 3d 62 0e b2 be 1a 8d 17 bf
       0.65676594 0.04617433 -0.34776598 -0.5919968
000330 5e 9b 36 be ba 02 bd 3e a5 12 24 3f 0e af c2 bd
       -0.17832705 0.36916143 0.6409095 -0.09506045
000340 dd 7b fb bd d1 dc ec be a3 58 9c be 5c 74 6d be
       -0.122794844 -0.4626222 -0.30536374 -0.23188919
000350 d5 16 1b bf db 7a 03 bf 67 ae 82 be ee f5 49 3f
       -0.60581714 -0.5135934 -0.25523683 0.78890884
000360 3b a8 30 3e ad 98 23 3f d8 6e 2b bf e1 13 08 3f
       0.17251675 0.6390484 -0.6696601 0.5315533
000370 21 8e 14 3e 31 4a 1f be 40 d4 f3 3d 03 ba f6 3d
       0.14507343 -0.15555646 0.11905718 0.12047198
000380 e6 70 00 3f 47 b5 c5 3d fe b0 08 3f c7 3e 2d bf
       0.5017227 0.096537165 0.5339507 -0.67673916
000390 e0 fa 0b bf 10 34 fb be a4 c3 40 be 8f f0 1b 3e
       -0.5467968 -0.49063158 -0.18824631 0.15228485
0003a0 5c 3c 33 be 4b 9e 7e be 96 2a 44 3e db ac b9 be
       -0.17503494 -0.24865071 0.1915687 -0.3626469
0003b0 60 30 b5 be cd 4d 72 bf 42 c7 d3 bd d7 7f f6 bb
       -0.3538847 -0.94649965 -0.1034074 -0.007522564
0003c0 d6 83 83 bd 9f 37 04 3f d2 d7 d7 bd 8d 97 8b 3d
       -0.0642163 0.5164737 -0.10539211 0.068160154
0003d0 f6 b6 e2 bd b4 aa 85 3f 81 3b 7a be a2 e7 03 3f
       -0.11070053 1.044272 -0.24436761 0.5152532
0003e0 e0 63 a8 be 15 ae c1 3d 4c 67 f1 3e e1 b9 d7 3e
       -0.328887 0.09457032 0.47149122 0.42134002
0003f0 84 ef e6 3e ae b7 7c 3e fc 93 d8 bc 02 52 02 3f
       0.4510461 0.24679443 -0.026437752 0.50906384

bias f4 [32]
000000 8c 8c ae be 25 c4 5a 3f 93 cc ea 3e c6 9d 88 3e
       -0.34091604 0.8545554 0.45859203 0.26682872
000010 b3 03 da 3e 25 98 e3 3e 19 15 1b 3f 85 a8 2a be
       0.42580947 0.44452015 0.6057907 -0.16665848
000020 4f 60 46 3c 39 ae 74 bf 87 02 76 3d 97 42 b4 bd
       0.012107923 -0.9557834 0.060061004 -0.088017635
000030 29 0d 08 3d f4 78 7e 3f da 8c b7 bf 8e a3 f1 3e
       0.033215676 0.9940331 -1.433986 0.47195095
000040 d1 12 90 be b6 e1 76 3f f9 8d a8 be ac e6 92 3f
       -0.28139356 0.9643816 -0.32920817 1.1476645
000050 65 95 0e 3f cd 0e c8 be 37 fa 8a bf 9f d0 9a 3e
       0.5569671 -0.39073792 -1.085761 0.3023729
000060 59 d9 c1 bf 41 20 67 3f 62 5d dd 3f db d2 3c bf
       -1.5144454 0.9028359 1.7294123 -0.7375924
000070 c4 39 6f be d3 b1 50 bf c3 b7 49 be 3f 81 d0 bc
       -0.2336188 -0.8152134 -0.19699006 -0.025452254

weight f4 [10, 32]
000000 5d f5 0c 3f f0 95 b7 bf ce 89 65 bf 67 ab b1 bd
       0.55061895 -1.4342632 -0.896634 -0.086752705
000010 45 4a 33 bf 51 3f 88 bf 41 75 24 bf f3 37 9e 3e
       -0.700352 -1.0644323 -0.64241415 0.3090206
000020 d5 0b f1 be 8d 6f 87 3f a5 63 bc 3e 16 b3 bb 3d
       -0.4707934 1.0580918 0.36794773 0.09165017
000030 0d df 1e 3e f3 dc 37 c0 d7 b7 02 40 ba a0 7e bf
       0.15514775 -2.8728607 2.0424707 -0.99464
000040 fa 46 a9 3f 66 55 52 bf 68 a8 7c 3e c5 45 c8 be
       1.3224785 -0.8216156 0.24673617 -0.3911573
000050 16 3f 98 3e 3d a8 b6 3d 57 fa f7 3f fe 43 3a bf
       0.2973563 0.08918808 1.9373273 -0.7276
000060 bc ce 85 3f 49 06 a1 bf 86 ce 71 c0 4e bc 8d 3f
       1.0453715 -1.2580043 -3.7782302 1.1073091
000070 11 11 28 3f 48 f4 a4 3f e8 95 3f 3f 1c 31 7a be
       0.6565104 1.2887049 0.74838114 -0.24432796
000080 a1 01 0d 3f 42 71 b7 bf a7 f4 65 bf b9 bb b7 bd
       0.5508061 -1.4331439 -0.89826435 -0.08971352
000090 0d a0 32 bf 9c 17 88 bf 1d 10 25 bf d6 24 9f 3e
       -0.6977547 -1.0632205 -0.6447771 0.3108279
0000a0 c7 98 f0 be 08 7e 87 3f 6c 7b be 3e 5d b2 bb 3d
       -0.4699156 1.0585337 0.37203538 0.091648795
0000b0 97 f5 1e 3e 18 94 37 c0 e6 d5 02 40 f9 b8 7d bf
       0.15523373 -2.868414 2.0443053 -0.9911037
0000c0 82 20 a9 3f 63 2a 52 bf b7 06 7e 3e 75 c5 c9 be
       1.3213046 -0.82095927 0.24807249 -0.3940846
0000d0 c7 1a 98 3e 38 3c b7 3d 1d e4 f7 3f 32 6b 3a bf
       0.2970793 0.08947033 1.936649 -0.7281982
0000e0 df 8e 85 3f ed 9d a0 bf 03 2c 72 c0 d4 03 8e 3f
       1.0434226 -1.2548195 -3.7839363 1.1094918
0000f0 1b 58 28 3f 77 f9 a4 3f 8b c1 3f 3f 73 b6 78 be
       0.6575944 1.2888631 0.749047 -0.24288349
000100 33 4e 9e 3e 54 00 e6 3e 3d 6f 1b be 3e f3 2e bf
       0.30919036 0.44922125 -0.15179153 -0.6833991
000110 49 14 bf be ea 2d 6a be 7f 56 f3 bd 25 cf 08 3e
       -0.37320164 -0.22869077 -0.11881732 0.1336027
000120 13 b9 e4 3e 21 36 c5 be cd e7 0a bf 06 3c a5 3e
       0.4467245 -0.3851786 -0.5425995 0.32272357
000130 3e 12 e4 3e f3 35 3d 3e 91 13 8f be 65 e3 8d be
       0.44545168 0.18477611 -0.27944615 -0.2771255
000140 e4 f9 bc 3e 4f 9a 8a 3e 5a 80 05 3f 85 87 00 3f
       0.369094 0.27070853 0.52148974 0.50206786
000150 86 95 91 be 88 62 22 3f 9a 0d 21 bc bd 33 94 be
       -0.2843439 0.63431597 -0.009829903 -0.28945723
000160 30 73 21 bf dd 8a 74 3e a1 7e 51 3e 64 06 bd bc
       -0.6306639 0.23881097 0.20458461 -0.023074336
000170 a4 cc 29 3f 23 34 87 3d 25 9e 2e 3f 3c a4 13 3f
       0.6632788 0.06601741 0.6821006 0.57672477
000180 e0 32 0d 3f 31 57 b8 bf a8 85 65 bf f1 e2 b7 bd
       0.55155754 -1.4401609 -0.8965707 -0.089788325
000190 8e 2c 33 bf 29 80 88 bf 41 7c 24 bf 2b 3e 9e 3e
       -0.6998986 -1.0664111 -0.64252096 0.30906805
0001a0 b1 14 f1 be db 83 87 3f b5 cb be 3e fe f5 c1 3d
       -0.470861 1.0587114 0.3726479 0.094707474
0001b0 76 63 20 3e 30 9d 37 c0 da 93 02 40 91 32 7e bf
       0.15662941 -2.868969 2.0402741 -0.9929591
0001c0 db 2e a9 3f 93 41 51 bf 3a 10 7f 3e fd e4 c7 be
       1.3217424 -0.81740683 0.24908534 -0.39041892
0001d0 5d 49 98 3e 80 77 b2 3d 19 00 f8 3f 40 d7 3a bf
       0.29743472 0.08714199 1.937503 -0.72984695
0001e0 25 3b 86 3f a0 ab a0 bf 55 a8 71 c0 52 be 8d 3f
       1.04868 -1.2552376 -3.7758992 1.1073706
0001f0 98 b1 28 3f 1b b3 a4 3f a8 9f 3f 3f 1b 74 77 be
       0.65895987 1.2867159 0.7485299 -0.24165384
000200 6b 31 0d 3f 92 e3 b7 bf 28 a7 65 bf ad a0 b5 bd
       0.5515353 -1.4366324 -0.89708185 -0.08868537
000210 87 94 32 bf 4c 27 88 bf b6 00 25 bf 86 27 9f 3e
       -0.69757885 -1.0636992 -0.6445421 0.3108484
000220 dd ae f0 be 5b 81 87 3f 01 77 bd 3e 81 27 c0 3d
       -0.4700841 1.0586351 0.37004855 0.09382535
000230 2e 8a 1d 3e cc 9e 37 c0 93 c0 02 40 9b 60 7d bf
       0.15384743 -2.8690672 2.0430038 -0.98975533
000240 ad a1 a9 3f b8 3d 52 bf a2 ca 7d 3e 5c 88 c9 be
       1.3252465 -0.82125425 0.2478433 -0.39361846
000250 4a cd 97 3e 06 c9 b2 3d c3 1b f8 3f 98 3e 3a bf
       0.2964881 0.087297484 1.9383472 -0.7275176
000260 a9 bb 85 3f 4a b1 a0 bf 2a f8 71 c0 7c 1b 8e 3f
       1.0447894 -1.2554104 -3.7807717 1.1102138
000270 10 85 28 3f e0 7a a4 3f 70 88 3f 3f 28 6f 7a be
       0.6582804 1.2849998 0.7481756 -0.24456465
000280 8b 35 19 bf a7 c2 2c be 5a 9d 03 3f 3e 09 06 3f
       -0.59847325 -0.16871129 0.51411974 0.5235785
000290 56 b1 33 3f 64 5f ed 3e c4 b3 06 3f e2 c1 9f be
       0.7019247 0.4636184 0.5261805 -0.31202608
0002a0 1c 0b b6 be 16 39 d7 3d 83 65 e4 3e 0c ed 8c be
       -0.3555535 0.10508935 0.44608697 -0.27524602
0002b0 d0 09 c4 be 76 71 58 3e 5e 97 74 bd b0 16 01 3f
       -0.38288736 0.21137032 -0.059714667 0.50425243
0002c0 d9 2e df be 06 e7 64 bc 46 64 f7 be 0b 38 e5 bd
       -0.4359043 -0.013971096 -0.4831869 -0.1119233
0002d0 73 83 0d 3f 29 29 02 bf e5 74 a1 be c7 d7 eb 3e
       0.552787 -0.50844055 -0.31534496 0.46063063
0002e0 78 af c8 3d 4a f8 39 3d 74 04 4e 3e 1d 64 b1 be
       0.09799093 0.045402803 0.20118886 -0.34646693
0002f0 40 95 12 bf fc 50 fb be 72 cb eb be e4 bf 00 bf
       -0.5725899 -0.49085224 -0.46053654 -0.502928
000300 12 46 0d 3f 6e 64 b8 bf 74 16 65 bf a7 78 b8 bd
       0.55185044 -1.4405649 -0.89487386 -0.090073876
000310 d9 21 33 bf 7a 11 88 bf 0c b4 24 bf e1 89 9f 3e
       -0.6997352 -1.0630333 -0.6433723 0.3115988
000320 5c f6 ef be 86 ef 87 3f 85 f4 bc 3e d0 f4 c0 3d
       -0.46867645 1.0619972 0.36905304 0.09421694
000330 a1 f6 1d 3e 34 49 37 c0 b4 8e 02 40 fa 93 7e bf
       0.15426113 -2.863843 2.03996 -0.99444544
000340 b1 83 a9 3f a3 10 51 bf 91 de 7d 3e b7 01 c6 be
       1.3243314 -0.8166601 0.24791934 -0.38673183
000350 b2 c0 98 3e 0e 00 bb 3d ae c8 f7 3f 51 8c 3a bf
       0.29834515 0.0913087 1.9358118 -0.72870356
000360 c1 bb 86 3f e3 6e a0 bf 71 87 71 c0 7e ad 8d 3f
       1.0526048 -1.253384 -3.7738917 1.1068571
000370 6d cf 28 3f 7c 6d a4 3f c2 d7 3f 3f 81 1b 7c be
       0.65941507 1.2845912 0.74938595 -0.24619867
000380 a7 1b 0d 3f fb b3 b7 bf 3b ab 65 bf a0 c6 b7 bd
       0.5512032 -1.4351801 -0.897144 -0.089734316
000390 e9 fb 32 bf 7f 5a 88 bf 9f 32 25 bf 14 7f 9e 3e
       -0.69915634 -1.0652617 -0.64530367 0.30956328
0003a0 c7 fd f1 be f6 5a 87 3f db 87 be 3e be 4c c1 3d
       -0.4726393 1.0574634 0.37213024 0.094384655
0003b0 2c 6d 1f 3e 97 90 37 c0 0f e9 02 40 75 f0 7d bf
       0.1556899 -2.8682 2.0454748 -0.99195033
0003c0 ef 66 a9 3f 91 5f 52 bf 12 33 7c 3e af 2d c8 be
       1.3234538 -0.8217707 0.24628857 -0.39097354
0003d0 55 36 98 3e 95 4b b7 3d b8 e7 f7 3f e2 94 3a bf
       0.29728952 0.08949963 1.936759 -0.7288343
0003e0 13 d7 85 3f 6a 9d a0 bf 1a ef 71 c0 0b a9 8d 3f
       1.045626 -1.2548039 -3.7802186 1.1067213
0003f0 62 a8 28 3f 62 dd a4 3f cc d2 3f 3f d2 a4 79 be
       0.6588193 1.2880061 0.74931026 -0.2437928

bias f4 [10]
000000 13 0f 35 c0 9b f6 34 c0 82 60 9d 3e 97 4e 35 c0
       -2.829045 -2.8275516 0.30737692 -2.8329217
000010 cd fb 34 c0 5b af 58 3e 12 39 35 c0 c9 01 35 c0
       -2.8278687 0.21160643 -2.8316083 -2.828234
000020 e2 d6 34 c0 01 97 34 c0
       -2.8256154 -2.8217165

weight f4 [1, 32]
000000 48 6a 51 be 8e 47 a2 3b c3 dc de bd b5 68 69 bc
       -0.204507 0.0049523776 -0.10881951 -0.0142461555
000010 40 55 38 3e 42 0c b4 3c 19 af d8 3d d6 ab 64 3e
       0.1800127 0.021978501 0.10580272 0.22331175
000020 1f 7e 36 be c3 67 99 3e bd 8c 49 3e ae 3e 4b 3e
       -0.17821549 0.29961976 0.19682594 0.19848129
000030 6f 2b 92 3d 98 b6 4a bc ca 03 0c 3e 59 18 0e bf
       0.071371906 -0.012372635 0.1367332 -0.555059
000040 47 1a b2 bd e2 82 5f 3d bd 3c 95 bd ca 5d d2 3d
       -0.08696418 0.05456818 -0.072869755 0.10271795
000050 ed fd be 3d 02 0f c5 3c 87 28 a5 3d 29 4d cd bd
       0.09325776 0.024055008 0.080643706 -0.10024483
000060 f1 32 4e bd 47 14 3e 3e e2 ad 3d 3e 97 0a a9 3e
       -0.05034155 0.18562423 0.18523362 0.33015892
000070 a6 58 96 bd 87 05 6c 3d 62 99 8e be c4 de 25 bd
       -0.07341127 0.05762246 -0.27851397 -0.04049565

logits f4 [32, 10]
000000 3e cb e3 c1 40 cf e3 c1 57 f0 63 c1 cd df e3 c1
       -28.47424 -28.476196 -14.246177 -28.484278
000010 ae d2 e3 c1 00 00 80 b5 37 c9 e3 c1 21 d2 e3 c1
       -28.47787 -9.536743e-07 -28.47325 -28.477602
000020 51 db e3 c1 a8 d7 e3 c1 5b c3 05 c2 29 c3 05 c2
       -28.482088 -28.4803 -33.440777 -33.440586
000030 b6 ef 76 c1 ec ca 05 c2 ad c3 05 c2 00 00 00 00
       -15.433523 -33.448166 -33.44109 0.0
000040 a8 c6 05 c2 e7 c5 05 c2 72 c2 05 c2 83 c1 05 c2
       -33.444 -33.443264 -33.439888 -33.438976
000050 6f a0 af c1 c6 9c af c1 00 10 11 bb 32 a3 af c1
       -21.953337 -21.95155 -0.002213478 -21.954685
000060 ce 9c af c1 4a a8 c3 c0 30 95 af c1 dc a0 af c1
       -21.951565 -6.114293 -21.947845 -21.953545
000070 60 a6 af c1 60 ab af c1 2a 7f 01 c2 dc 7e 01 c2
       -21.956238 -21.95868 -32.374184 -32.373886
000080 74 b9 84 c1 12 7e 01 c2 62 7b 01 c2 00 00 00 00
       -16.590553 -32.373116 -32.37049 0.0
000090 94 78 01 c2 10 7f 01 c2 ca 79 01 c2 c0 7c 01 c2
       -32.367752 -32.374084 -32.368935 -32.371826
0000a0 56 c8 fd c1 c3 c7 fd c1 51 ba 3c c1 fb d7 fd c1
       -31.72282 -31.72254 -11.795487 -31.73046
0000b0 ba cf fd c1 00 00 00 b7 4d cb fd c1 79 cb fd c1
       -31.726429 -7.6293945e-06 -31.724268 -31.724352
0000c0 b3 ce fd c1 ca cb fd c1 20 c4 b8 c1 b2 bf b8 c1
       -31.725927 -31.724506 -23.095764 -23.093601
0000d0 00 34 a0 bb 3c c6 b8 c1 9f c2 b8 c1 e4 57 aa c0
       -0.0048890114 -23.096794 -23.09503 -5.323229
0000e0 6d b6 b8 c1 af c4 b8 c1 93 ca b8 c1 57 cf b8 c1
       -23.089075 -23.096037 -23.098913 -23.10124
0000f0 ee e9 fe c1 50 e9 fe c1 25 e9 83 c1 46 e7 fe c1
       -31.864223 -31.863922 -16.48884 -31.862926
000100 0a e2 fe c1 00 00 00 00 18 da fe c1 ca e9 fe c1
       -31.86037 0.0 -31.856491 -31.864155
000110 12 e1 fe c1 02 e7 fe c1 0d 21 d0 c1 73 16 d0 c1
       -31.859898 -31.862797 -26.016138 -26.010962
000120 40 8d 7e be a7 22 d0 c1 fa 22 d0 c1 7a c0 c1 bf
       -0.2485857 -26.01692 -26.017078 -1.5136864
000130 4b 16 d0 c1 c9 24 d0 c1 4b 24 d0 c1 0d 28 d0 c1
       -26.010885 -26.017962 -26.017721 -26.019556
000140 11 2a e0 c1 aa 29 e0 c1 92 df 70 c1 16 2c e0 c1
       -28.02054 -28.020344 -15.054583 -28.021526
000150 cf 1d e0 c1 00 00 00 00 f8 14 e0 c1 44 2a e0 c1
       -28.014555 0.0 -28.010239 -28.020638
000160 64 26 e0 c1 3d 2c e0 c1 ea 07 ff c1 c4 0d ff c1
       -28.018745 -28.0216 -31.878864 -31.881721
000170 f4 b5 7c c1 7a fb fe c1 78 01 ff c1 00 00 00 00
       -15.794422 -31.872791 -31.875717 0.0
000180 a4 e0 fe c1 34 0a ff c1 d0 05 ff c1 58 15 ff c1
       -31.859688 -31.879982 -31.877838 -31.885422
000190 ff 84 c0 c1 04 8c c0 c1 02 00 49 c1 31 7e c0 c1
       -24.06494 -24.068367 -12.562502 -24.061617
0001a0 64 7f c0 c1 00 00 60 b6 98 6d c0 c1 34 80 c0 c1
       -24.062202 -3.33786e-06 -24.053513 -24.0626
0001b0 6b 84 c0 c1 10 8b c0 c1 8b 6d b8 c1 78 6d b8 c1
       -24.064657 -24.067902 -23.053488 -23.053452
0001c0 00 fb e1 bc ad 71 b8 c1 ff 7a b8 c1 80 ab 66 c0
       -0.027585506 -23.055506 -23.060057 -3.6042175
0001d0 ae 6e b8 c1 9d 74 b8 c1 48 76 b8 c1 27 77 b8 c1
       -23.054043 -23.05694 -23.057755 -23.05818
0001e0 00 7f b8 c1 63 84 b8 c1 1e 1c 2e c1 e0 8d b8 c1
       -23.062012 -23.064642 -10.881865 -23.069275
0001f0 27 86 b8 c1 00 00 9c b7 95 79 b8 c1 e2 82 b8 c1
       -23.065504 -1.859665e-05 -23.059366 -23.063908
000200 ca 8c b8 c1 8a 89 b8 c1 3a bf 01 c2 14 bf 01 c2
       -23.068745 -23.067158 -32.436745 -32.4366
000210 a2 7b 60 c1 3f c9 01 c2 f2 bf 01 c2 00 00 80 b5
       -14.030184 -32.44653 -32.437447 -9.536743e-07
000220 cd c4 01 c2 29 c2 01 c2 2d c0 01 c2 9d bd 01 c2
       -32.44219 -32.43961 -32.43767 -32.43517
000230 30 31 ac c1 9b 2d ac c1 00 58 04 bb 5f 34 ac c1
       -21.524017 -21.522268 -0.0020194054 -21.525572
000240 37 2d ac c1 7d 97 c6 c0 1b 28 ac c1 40 32 ac c1
       -21.522078 -6.205992 -21.519583 -21.524536
000250 05 37 ac c1 cc 3b ac c1 63 c1 da c1 2c c0 da c1
       -21.526865 -21.529198 -27.344427 -27.343834
000260 9a a5 6c c1 bd c3 da c1 1d b4 da c1 00 00 00 00
       -14.79043 -27.345575 -27.337946 0.0
000270 a9 ac da c1 c1 c1 da c1 70 bc da c1 66 c2 da c1
       -27.334307 -27.344606 -27.34201 -27.344921
000280 7a 7e 04 c2 62 7e 04 c2 20 15 7d c1 ae 83 04 c2
       -33.123512 -33.12342 -15.817657 -33.128593
000290 a4 7d 04 c2 00 00 00 00 f8 7e 04 c2 7f 80 04 c2
       -33.122696 0.0 -33.123993 -33.125484
0002a0 64 7c 04 c2 97 7c 04 c2 5c 6a da c1 22 69 da c1
       -33.121475 -33.12167 -27.301933 -27.301334
0002b0 8e 95 6c c1 d4 6c da c1 1c 5d da c1 00 00 00 00
       -14.786512 -27.303139 -27.295464 0.0
0002c0 a4 55 da c1 b8 6a da c1 6e 65 da c1 3e 6b da c1
       -27.291817 -27.302109 -27.299526 -27.302364
0002d0 d0 d8 b9 c1 55 de b9 c1 74 ac 31 c1 b6 e7 b9 c1
       -23.230865 -23.23356 -11.104603 -23.23814
0002e0 da df b9 c1 00 00 78 b7 82 d3 b9 c1 e1 dc b9 c1
       -23.234303 -1.4781952e-05 -23.228275 -23.232851
0002f0 80 e6 b9 c1 1c e3 b9 c1 bf 3d d6 c1 44 3e d6 c1
       -23.237549 -23.235893 -26.78015 -26.780403
000300 f3 f5 6d c1 8e 3b d6 c1 05 2f d6 c1 00 00 00 00
       -14.872546 -26.77908 -26.772959 0.0
000310 12 25 d6 c1 5d 3c d6 c1 a0 3b d6 c1 c9 44 d6 c1
       -26.7681 -26.779474 -26.779114 -26.783587
000320 27 74 03 c2 ea 73 03 c2 9f ff 80 c1 d4 75 03 c2
       -32.86343 -32.863197 -16.124815 -32.865067
000330 3c 72 03 c2 00 00 00 00 c8 71 03 c2 ed 74 03 c2
       -32.861557 0.0 -32.861115 -32.864185
000340 f3 6f 03 c2 84 71 03 c2 0d 6d 03 c2 ab 6c 03 c2
       -32.859325 -32.860855 -32.856495 -32.85612
000350 85 23 5d c1 aa 75 03 c2 90 6e 03 c2 00 00 80 b5
       -13.821172 -32.864906 -32.85797 -9.536743e-07
000360 5a 73 03 c2 76 6f 03 c2 70 6d 03 c2 23 6b 03 c2
       -32.862648 -32.85885 -32.856873 -32.854626
000370 88 11 dd c1 1a 17 dd c1 62 64 77 c1 5a 0f dd c1
       -27.63356 -27.63628 -15.4620075 -27.632496
000380 50 04 dd c1 00 00 00 00 ea f7 dc c1 b4 11 dd c1
       -27.627106 0.0 -27.621052 -27.633644
000390 04 11 dd c1 14 1d dd c1 92 ab db c1 08 aa db c1
       -27.633308 -27.639198 -27.458775 -27.458023
0003a0 68 32 6d c1 aa ad db c1 b6 9d db c1 00 00 00 00
       -14.824806 -27.459797 -27.452007 0.0
0003b0 21 97 db c1 c2 ab db c1 1b a6 db c1 ad ac db c1
       -27.448793 -27.458866 -27.456106 -27.459314
0003c0 95 7f b0 c1 fa 7e b0 c1 d8 0e 46 c1 70 7e b0 c1
       -22.062296 -22.062 -12.378624 -22.061737
0003d0 b6 78 b0 c1 00 00 90 b6 6e 70 b0 c1 41 7e b0 c1
       -22.05894 -4.2915344e-06 -22.054897 -22.061647
0003e0 08 80 b0 c1 3c 82 b0 c1 e9 04 fd c1 a3 06 fd c1
       -22.062515 -22.063591 -31.627398 -31.62824
0003f0 94 d9 84 c1 bf 00 fd c1 a0 fd fc c1 00 00 00 00
       -16.60624 -31.625364 -31.62384 0.0

probs f4 [32, 10]
000000 1b 40 f2 2a dc c6 f1 2a e4 80 2e 35 cb d4 ef 2a
       4.3032318e-13 4.2948186e-13 6.500761e-07 4.2602583e-13
000010 4c 5f f1 2a f6 ff 7f 3f a5 7d f2 2a 09 70 f1 2a
       4.2876325e-13 0.9999994 4.307502e-13 4.288794e-13
000020 61 5b f0 2a 54 c9 f0 2a 53 0a 58 27 df 14 58 27
       4.269597e-13 4.2772264e-13 2.9981618e-15 2.9987336e-15
000030 2f ea 54 34 2b 73 56 27 07 f9 57 27 fc ff 7f 3f
       1.9829234e-07 2.9760899e-15 2.9972242e-15 0.99999976
000040 56 58 57 27 f0 80 57 27 81 3b 58 27 ff 6d 58 27
       2.988513e-15 2.990714e-15 3.0008279e-15 3.003565e-15
000050 a5 ad a0 2f 25 f7 a0 2f 18 6f 7f 3f 23 76 a0 2f
       2.9227212e-10 2.9279437e-10 0.9977889 2.9187772e-10
000060 84 f6 a0 2f 10 e7 10 3b 10 90 a1 2f 04 a5 a0 2f
       2.927899e-10 0.002211038 2.9388092e-10 2.922108e-10
000070 69 36 a0 2f 65 d2 9f 2f a4 ec 1c 28 98 f8 1c 28
       2.914249e-10 2.9071426e-10 8.711053e-15 8.713645e-15
000080 85 e3 85 33 92 17 1d 28 42 81 1d 28 fe ff 7f 3f
       6.234681e-08 8.720362e-15 8.743279e-15 0.9999999
000090 d9 ef 1d 28 a0 f0 1c 28 10 c0 1d 28 75 4b 1d 28
       8.767259e-15 8.711917e-15 8.756898e-15 8.731613e-15
0000a0 ab 80 96 28 79 8b 96 28 3a f3 fc 36 78 5b 95 28
       1.6709146e-14 1.6713832e-14 7.5385005e-06 1.6581991e-14
0000b0 e1 f5 95 28 82 ff 7f 3f ee 48 96 28 b4 45 96 28
       1.6648956e-14 0.9999925 1.6684974e-14 1.6683574e-14
0000c0 24 09 96 28 c2 3f 96 28 a3 0d cd 2e 4d 7f cd 2e
       1.665731e-14 1.6680996e-14 9.324743e-11 9.344934e-11
0000d0 61 c0 7e 3f 99 d7 cc 2e 33 34 cd 2e 16 cf 9f 3b
       0.99512297 9.315144e-11 9.331593e-11 0.0048769815
0000e0 f3 6d ce 2e 52 ff cc 2e 99 68 cc 2e f8 ee cb 2e
       9.387326e-11 9.3222e-11 9.295426e-11 9.2738206e-11
0000f0 3d a8 82 28 52 b2 82 28 42 39 94 33 a6 d3 82 28
       1.4505861e-14 1.4510233e-14 6.902202e-08 1.4524687e-14
000100 5c 29 83 28 fe ff 7f 3f e0 ab 83 28 89 aa 82 28
       1.4561858e-14 0.9999999 1.461846e-14 1.4506857e-14
000110 3f 39 83 28 fe d7 82 28 ee e1 b0 2c f1 cc b1 2c
       1.4568748e-14 1.4526571e-14 5.027304e-12 5.0533956e-12
000120 b8 a7 47 3f 88 be b0 2c 49 b7 b0 2c 22 61 61 3e
       0.77990294 5.023374e-12 5.0225696e-12 0.2200971
000130 6a d0 b1 2c 70 8f b0 2c 4d 9a b0 2c 6c 47 b0 2c
       5.053781e-12 5.0181456e-12 5.0193517e-12 5.0101503e-12
000140 8b aa 3e 2b 22 b4 3e 2b 95 81 9b 34 6f 7a 3e 2b
       6.7738236e-13 6.7751544e-13 2.8965283e-07 6.767147e-13
000150 90 cf 3f 2b fc ff 7f 3f f8 a3 40 2b cb a5 3e 2b
       6.814488e-13 0.99999976 6.8439655e-13 6.7731644e-13
000160 3b 02 3f 2b cf 76 3e 2b 19 c2 80 28 0d 64 80 28
       6.7859927e-13 6.766644e-13 1.4295031e-14 1.4254245e-14
000170 82 69 14 34 e3 8a 81 28 ff 29 81 28 fe ff 7f 3f
       1.3821958e-07 1.438211e-14 1.434009e-14 0.9999999
000180 4b 40 83 28 47 9d 80 28 f0 e3 80 28 50 d5 7f 28
       1.4571804e-14 1.4279063e-14 1.4309707e-14 1.4201598e-14
000190 c3 97 1b 2e 79 0f 1b 2e 57 f0 6a 36 54 1c 1c 2e
       3.537771e-11 3.5256662e-11 3.5008613e-06 3.5495454e-11
0001a0 ef 04 1c 2e c6 ff 7f 3f 86 61 1d 2e 17 f5 1b 2e
       3.5474675e-11 0.99999654 3.5784285e-11 3.5460603e-11
0001b0 02 a3 1b 2e f3 21 1b 2e 7f e8 d5 2e 7b ea d5 2e
       3.53877e-11 3.5273073e-11 9.727418e-11 9.727771e-11
0001c0 da 08 79 3f 1a 7a d5 2e f6 81 d4 2e d3 e4 de 3c
       0.9727913 9.707808e-11 9.6637295e-11 0.027208721
0001d0 1d ca d5 2e c6 2b d5 2e 59 ff d4 2e 29 e8 d4 2e
       9.722021e-11 9.693894e-11 9.686003e-11 9.681884e-11
0001e0 b4 17 d4 2e 15 89 d3 2e 30 ac 9d 37 c6 8e d2 2e
       9.6448544e-11 9.61952e-11 1.879604e-05 9.575056e-11
0001f0 6a 5a d3 2e c4 fe 7f 3f 88 a7 d4 2e dd b0 d3 2e
       9.61123e-11 0.99998116 9.6704034e-11 9.626586e-11
000200 5c ab d2 2e 04 01 d3 2e 5f 68 13 28 d8 6d 13 28
       9.580134e-11 9.5953495e-11 8.182771e-15 8.183958e-15
000210 3a 93 58 35 ef f8 11 28 e5 4d 13 28 f2 ff 7f 3f
       8.0680513e-07 8.103096e-15 8.17703e-15 0.99999917
000220 82 9b 12 28 6b fc 12 28 68 45 13 28 df a3 13 28
       8.1383485e-15 8.1593625e-15 8.175189e-15 8.195673e-15
000230 f5 d5 f6 2f 92 44 f7 2f ca 7b 7f 3f cd 73 f6 2f
       4.4899165e-10 4.497776e-10 0.9979826 4.482942e-10
000240 a6 50 f7 2f c8 34 04 3b cc ee f7 2f 2f b5 f6 2f
       4.4986342e-10 0.0020173062 4.5098714e-10 4.4875878e-10
000250 45 22 f6 2f 75 8f f5 2f 24 72 bb 2b 9d 8e bb 2b
       4.477149e-10 4.4667173e-10 1.331883e-12 1.3326732e-12
000260 13 85 ca 34 13 3b bb 2b 28 aa bc 2b fa ff 7f 3f
       3.7722256e-07 1.3303546e-12 1.3405431e-12 0.99999964
000270 3f 5a bd 2b 8a 69 bb 2b 3e e6 bb 2b 71 5a bb 2b
       1.3454306e-12 1.3316442e-12 1.3351054e-12 1.3312252e-12
000280 e9 59 94 27 64 5d 94 27 e5 00 11 34 6e 99 93 27
       4.1175733e-15 4.1179506e-15 1.3504503e-07 4.0967045e-15
000290 ed 78 94 27 fe ff 7f 3f a9 47 94 27 16 0f 94 27
       4.120936e-15 0.9999999 4.1155946e-15 4.109461e-15
0002a0 5b a7 94 27 f3 9f 94 27 33 95 c3 2b 31 b3 c3 2b
       4.12597e-15 4.125167e-15 1.3896994e-12 1.3905319e-12
0002b0 96 50 cb 34 e1 58 c3 2b 2f da c4 2b fa ff 7f 3f
       3.787033e-07 1.3880252e-12 1.3987196e-12 0.99999964
0002c0 4c 92 c5 2b 69 8c c3 2b dd 0d c4 2b 9f 7f c3 2b
       1.4038297e-12 1.3894555e-12 1.3930485e-12 1.3891005e-12
0002d0 ea 23 b3 2e 7b a8 b2 2e e3 60 7c 37 82 d7 b1 2e
       8.146357e-11 8.124431e-11 1.5042929e-05 8.08731e-11
0002e0 8f 86 b2 2e 04 ff 7f 3f d9 9a b3 2e f2 c8 b2 2e
       8.118405e-11 0.999985 8.167484e-11 8.130198e-11
0002f0 6f f2 b1 2e eb 3d b2 2e 12 c8 24 2c 5f bd 24 2c
       8.092093e-11 8.105502e-11 2.3416863e-12 2.3410924e-12
000300 df 8d ba 34 3b f5 24 2c 7f f8 25 2c fa ff 7f 3f
       3.4748425e-07 2.3441932e-12 2.3585853e-12 0.99999964
000310 68 c7 26 2c 90 e4 24 2c c8 f3 24 2c 54 37 24 2c
       2.3700712e-12 2.343268e-12 2.3441128e-12 2.3336515e-12
000320 bf 6a c0 27 36 76 c0 27 6a 4f d5 33 33 1a c0 27
       5.340644e-15 5.341887e-15 9.933031e-08 5.331911e-15
000330 18 c7 c0 27 fe ff 7f 3f f0 dc c0 27 8e 45 c0 27
       5.3506563e-15 0.9999999 5.3530246e-15 5.3366117e-15
000340 59 35 c1 27 bf e9 c0 27 82 c1 c1 27 0e d4 c1 27
       5.36261e-15 5.3544133e-15 5.3778063e-15 5.379817e-15
000350 c6 75 85 35 0a 22 c0 27 56 78 c1 27 f0 ff 7f 3f
       9.943549e-07 5.332761e-15 5.369873e-15 0.99999905
000360 3e 91 c0 27 e6 4c c1 27 c8 ae c1 27 50 1e c2 27
       5.3448177e-15 5.3651634e-15 5.375776e-15 5.387868e-15
000370 6d 61 8c 2b d0 ff 8b 2b 84 ef 4e 34 b2 87 8c 2b
       9.974639e-13 9.947546e-13 1.927238e-07 9.985261e-13
000380 22 4a 8d 2b fc ff 7f 3f c5 25 8e 2b 69 5e 8c 2b
       1.0039229e-12 0.99999976 1.010019e-12 9.973802e-13
000390 7a 6a 8c 2b 60 97 8b 2b 24 31 a7 2b 51 51 a7 2b
       9.977151e-13 9.918559e-13 1.1879703e-12 1.1888634e-12
0003a0 21 ad c3 34 68 05 a7 2b c4 53 a8 2b fa ff 7f 3f
       3.6447548e-07 1.1867564e-12 1.1960368e-12 0.99999964
0003b0 7c de a8 2b 38 2d a7 2b 80 a3 a7 2b 0b 1a a7 2b
       1.199887e-12 1.1878614e-12 1.1911444e-12 1.1873292e-12
0003c0 40 17 90 2f 28 22 90 2f c9 2e 8d 36 df 2b 90 2f
       2.6209968e-10 2.6217717e-10 4.207574e-06 2.622462e-10
0003d0 36 93 90 2f ba ff 7f 3f 2d 29 91 2f 2e 2f 90 2f
       2.6298047e-10 0.9999958 2.6404604e-10 2.622697e-10
0003e0 29 0f 90 2f 82 e7 8f 2f 4c 92 a5 28 94 6e a5 28
       2.620422e-10 2.6176045e-10 1.8382126e-14 1.8366636e-14
0003f0 11 ce 83 33 91 e8 a5 28 57 29 a6 28 fe ff 7f 3f
       6.137646e-08 1.841954e-14 1.844763e-14 0.9999999
